best_models/best_transformer_decoder.pth (torch, 583026 bytes, 16 tensors)

positional.pe f4 [1, 90, 128]
000000 00 00 00 00 00 00 80 3f 00 00 00 00 00 00 80 3f
       0.0 1.0 0.0 1.0
000010 00 00 00 00 00 00 80 3f 00 00 00 00 00 00 80 3f
       0.0 1.0 0.0 1.0
000020 00 00 00 00 00 00 80 3f 00 00 00 00 00 00 80 3f
       0.0 1.0 0.0 1.0
000030 00 00 00 00 00 00 80 3f 00 00 00 00 00 00 80 3f
       0.0 1.0 0.0 1.0
000040 00 00 00 00 00 00 80 3f 00 00 00 00 00 00 80 3f
       0.0 1.0 0.0 1.0
000050 00 00 00 00 00 00 80 3f 00 00 00 00 00 00 80 3f
       0.0 1.0 0.0 1.0
000060 00 00 00 00 00 00 80 3f 00 00 00 00 00 00 80 3f
       0.0 1.0 0.0 1.0
000070 00 00 00 00 00 00 80 3f 00 00 00 00 00 00 80 3f
       0.0 1.0 0.0 1.0
000080 00 00 00 00 00 00 80 3f 00 00 00 00 00 00 80 3f
       0.0 1.0 0.0 1.0
000090 00 00 00 00 00 00 80 3f 00 00 00 00 00 00 80 3f
       0.0 1.0 0.0 1.0
0000a0 00 00 00 00 00 00 80 3f 00 00 00 00 00 00 80 3f
       0.0 1.0 0.0 1.0
0000b0 00 00 00 00 00 00 80 3f 00 00 00 00 00 00 80 3f
       0.0 1.0 0.0 1.0
0000c0 00 00 00 00 00 00 80 3f 00 00 00 00 00 00 80 3f
       0.0 1.0 0.0 1.0
0000d0 00 00 00 00 00 00 80 3f 00 00 00 00 00 00 80 3f
       0.0 1.0 0.0 1.0
0000e0 00 00 00 00 00 00 80 3f 00 00 00 00 00 00 80 3f
       0.0 1.0 0.0 1.0
0000f0 00 00 00 00 00 00 80 3f 00 00 00 00 00 00 80 3f
       0.0 1.0 0.0 1.0
000100 00 00 00 00 00 00 80 3f 00 00 00 00 00 00 80 3f
       0.0 1.0 0.0 1.0
000110 00 00 00 00 00 00 80 3f 00 00 00 00 00 00 80 3f
       0.0 1.0 0.0 1.0
000120 00 00 00 00 00 00 80 3f 00 00 00 00 00 00 80 3f
       0.0 1.0 0.0 1.0
000130 00 00 00 00 00 00 80 3f 00 00 00 00 00 00 80 3f
       0.0 1.0 0.0 1.0
000140 00 00 00 00 00 00 80 3f 00 00 00 00 00 00 80 3f
       0.0 1.0 0.0 1.0
000150 00 00 00 00 00 00 80 3f 00 00 00 00 00 00 80 3f
       0.0 1.0 0.0 1.0
000160 00 00 00 00 00 00 80 3f 00 00 00 00 00 00 80 3f
       0.0 1.0 0.0 1.0
000170 00 00 00 00 00 00 80 3f 00 00 00 00 00 00 80 3f
       0.0 1.0 0.0 1.0
000180 00 00 00 00 00 00 80 3f 00 00 00 00 00 00 80 3f
       0.0 1.0 0.0 1.0
000190 00 00 00 00 00 00 80 3f 00 00 00 00 00 00 80 3f
       0.0 1.0 0.0 1.0
0001a0 00 00 00 00 00 00 80 3f 00 00 00 00 00 00 80 3f
       0.0 1.0 0.0 1.0
0001b0 00 00 00 00 00 00 80 3f 00 00 00 00 00 00 80 3f
       0.0 1.0 0.0 1.0
0001c0 00 00 00 00 00 00 80 3f 00 00 00 00 00 00 80 3f
       0.0 1.0 0.0 1.0
0001d0 00 00 00 00 00 00 80 3f 00 00 00 00 00 00 80 3f
       0.0 1.0 0.0 1.0
0001e0 00 00 00 00 00 00 80 3f 00 00 00 00 00 00 80 3f
       0.0 1.0 0.0 1.0
0001f0 00 00 00 00 00 00 80 3f 00 00 00 00 00 00 80 3f
       0.0 1.0 0.0 1.0
000200 a4 6a 57 3f 41 51 0a 3f 1c 00 43 3f 28 dd 25 3f
       0.84147096 0.54030234 0.7617204 0.6479058
000210 ce 7a 2e 3f b0 54 3b 3f 3a cd 1a 3f aa e4 4b 3f
       0.68156135 0.731761 0.604694 0.7964579
000220 ba 7d 08 3f 0d 94 58 3f e3 96 ef 3e d5 3d 62 3f
       0.53316844 0.8460091 0.46794805 0.883756
000230 f0 90 d1 3e c7 92 69 3f 61 d7 b6 3e a9 1e 6f 3f
       0.4093089 0.9123959 0.35711196 0.9340616
000240 3e 39 9f 3e 6b 4e 73 3f 17 76 8a 3e 11 76 76 3f
       0.3109836 0.9504153 0.2704322 0.96273905
000250 25 8f 70 3e f1 d5 78 3f 61 ce 50 3e 09 9f 7a 3f
       0.23492105 0.9720145 0.20391227 0.9789892
000260 3a 23 35 3e 83 f6 7b 3f e3 10 1d 3e 7c f8 7c 3f
       0.17689219 0.9842302 0.15338473 0.9881666
000270 f3 25 08 3e 28 ba 7d 3f 5c f9 eb 3d 84 4b 7e 3f
       0.13295726 0.99112177 0.11522171 0.9933398
000280 76 75 cc 3d 98 b8 7e 3f bf 20 b1 3d 6e 0a 7f 3f
       0.099833414 0.9950042 0.08648824 0.9962529
000290 36 6f 99 3d d1 47 7f 3f 60 e6 84 3d de 75 7f 3f
       0.07491915 0.9971896 0.06489253 0.99789226
0002a0 ae 36 66 3d 68 98 7f 3f 12 62 47 3d 4f b2 7f 3f
       0.05620449 0.9984193 0.04867751 0.9988145
0002b0 fa ac 2c 3d bd c5 7f 3f c5 8a 15 3d 4f d4 7f 3f
       0.04215715 0.999111 0.036509294 0.9993333
0002c0 5b 81 01 3d 3c df 7f 3f a4 4d e0 3c 6e e7 7f 3f
       0.031617504 0.99950004 0.027380772 0.9996251
0002d0 a5 3e c2 3c 93 ed 7f 3f 82 36 a8 3c 2f f2 7f 3f
       0.023711512 0.99971884 0.020533804 0.9997892
0002e0 42 ab 91 3c a3 f5 7f 3f a3 4a 7c 3c 3b f8 7f 3f
       0.017781857 0.99984187 0.015398654 0.99988145
0002f0 49 7a 5a 3c 2c fa 7f 3f fa 31 3d 3c a1 fb 7f 3f
       0.013334819 0.99991107 0.01154756 0.9999333
000300 57 d6 23 3c b9 fc 7f 3f ba e0 0d 3c 8b fd 7f 3f
       0.009999833 0.99995 0.008659536 0.9999625
000310 16 b9 f5 3b 28 fe 7f 3f b3 c9 d4 3b 9e fe 7f 3f
       0.0074988706 0.99997187 0.006493771 0.9999789
000320 5a 44 b8 3b f7 fe 7f 3f a3 91 9f 3b 39 ff 7f 3f
       0.0056233825 0.9999842 0.004869656 0.99998814
000330 5a 2e 8a 3b 6b ff 7f 3f e9 51 6f 3b 90 ff 7f 3f
       0.0042169513 0.9999911 0.0036517328 0.9999933
000340 1c 3e 4f 3b ac ff 7f 3f fe 76 33 3b c1 ff 7f 3f
       0.0031622713 0.999995 0.0027384157 0.99999624
000350 03 69 1b 3b d1 ff 7f 3f 67 94 06 3b dd ff 7f 3f
       0.0023713715 0.9999972 0.0020535232 0.9999979
000360 20 15 e9 3a e6 ff 7f 3f 54 d7 c9 3a ec ff 7f 3f
       0.0017782785 0.99999845 0.0015399256 0.9999988
000370 8a c9 ae 3a f1 ff 7f 3f 09 5c 97 3a f5 ff 7f 3f
       0.001333521 0.9999991 0.0011547814 0.99999934
000380 6d 12 83 3a f8 ff 7f 3f e2 01 63 3a fa ff 7f 3f
       0.0009999998 0.9999995 0.00086596434 0.99999964
000390 89 94 44 3a fb ff 7f 3f 43 3b 2a 3a fd ff 7f 3f
       0.000749894 0.9999997 0.0006493816 0.9999998
0003a0 13 6a 13 3a fd ff 7f 3f ab 4f ff 39 fe ff 7f 3f
       0.0005623411 0.9999998 0.00048696747 0.9999999
0003b0 21 17 dd 39 ff ff 7f 3f d7 74 bf 39 ff ff 7f 3f
       0.00042169637 0.99999994 0.0003651741 0.99999994
0003c0 61 cb a5 39 ff ff 7f 3f 75 92 8f 39 ff ff 7f 3f
       0.00031622782 0.99999994 0.00027384204 0.99999994
0003d0 0d a8 78 39 00 00 80 3f e2 53 57 39 00 00 80 3f
       0.00023713727 1.0 0.00020535247 1.0
0003e0 53 77 3a 39 00 00 80 3f 19 79 21 39 00 00 80 3f
       0.00017782794 1.0 0.00015399269 1.0
0003f0 6d d4 0b 39 00 00 80 3f dd 2c f2 38 00 00 80 3f
       0.00013335208 1.0 0.00011547816 1.0

encoder_input_layer.weight f4 [128, 1]
000000 98 39 a3 3c c7 09 21 3c bc 3d a0 3d 90 17 3b bd
       0.019924924 0.009828991 0.07824275 -0.045676768
000010 33 0d c7 bd cb 96 7d bd 37 55 91 3d 49 db 56 bd
       -0.097193144 -0.061911386 0.070963316 -0.05245522
000020 74 15 aa 3d df d6 5d 3d 18 82 04 bd e6 df eb bd
       0.08304873 0.054159995 -0.03235063 -0.115173146
000030 f7 93 98 3d be 7d 73 bd 9d 36 1d bd db 80 ce bd
       0.07450097 -0.05944609 -0.03838216 -0.10083171
000040 aa 56 24 3d 99 a1 38 bd 7f 19 00 bd e0 3b 77 3c
       0.04012171 -0.045075987 -0.031274315 0.015089959
000050 dc fe c2 3d 13 5a fb bc 5a 30 0e 3d b7 3b 6c bd
       0.09521267 -0.0306826 0.03471408 -0.057674136
000060 fb 1b 62 bc 5e 28 be 3d 2b 34 78 3d 9c f3 0a 3d
       -0.013800616 0.09285043 0.060596626 0.03392373
000070 17 38 f3 bd a8 2f 9b bd 9a 89 c9 bd 41 7e df 3b
       -0.11875933 -0.07577449 -0.098406985 0.0068204706
000080 ff be b2 bd 07 ae 00 be 1d 23 43 3d 1e d0 a6 3d
       -0.08727836 -0.12566386 0.04764091 0.08145164
000090 89 f1 2b bd 86 24 b7 bd 41 53 ba bc 72 bf a9 bd
       -0.041978393 -0.08942513 -0.022744777 -0.082884684
0000a0 55 2a 2a 3c 7b 40 cb 3d 83 c2 bd 3c b9 80 38 3d
       0.010386069 0.09924408 0.02316404 0.045044634
0000b0 82 e9 3b 3d 34 3f 6f 3d 94 3e 7d 3d 17 df 57 bd
       0.045876987 0.058409885 0.061827257 -0.05270299
0000c0 8d 07 8d 3c 6b f9 39 bd 70 3d 5b bd ec 9d bd 3c
       0.017215515 -0.04540388 -0.05352539 0.023146592
0000d0 f0 8a 9d bd ec 33 6e bd 04 31 79 bd 9a 44 1c bc
       -0.07692516 -0.058154985 -0.06083776 -0.00953784
0000e0 ce 52 17 3c fe ec 80 3b df ce c9 3d 4f 53 82 bd
       0.009236051 0.0039345017 0.09853911 -0.06363546
0000f0 98 8c ea 3d 41 5a d6 bd d1 b8 81 3d fc 53 f8 3c
       0.114525974 -0.10466433 0.06334079 0.030313484
000100 aa cf 25 bd 3c 12 be 3d d8 26 97 bd d7 a0 b4 bd
       -0.040481247 0.09280822 -0.07380456 -0.0881974
000110 c2 fb 4f bd 66 3a 2e 3d e5 a3 84 bd 4e a9 fe 3d
       -0.050777204 0.04253616 -0.06476573 0.12434636
000120 f6 a5 5c 3d d7 69 19 bd 1e c0 bf 3d b9 05 dc 3c
       0.05386921 -0.037454452 0.09362815 0.026858198
000130 7f 9d c2 bd 06 cd 85 bd b3 71 f3 bc 0f 42 a4 bd
       -0.09502696 -0.06533246 -0.029717302 -0.08020412
000140 cd 6c ed 3d 73 12 2c 3d 1a f6 94 bd 9d 54 ef bd
       0.11593018 0.042009782 -0.07273503 -0.116860606
000150 e8 4a e7 bd d1 1e bf 3c 37 94 c8 bd a3 53 24 bc
       -0.11293584 0.023330124 -0.09793895 -0.010029706
000160 bd dd 77 3d 7b 65 d0 bc 06 ce 99 3d a6 3f c3 3d
       0.0605142 -0.025439015 0.07509999 0.09533624
000170 96 d7 da 3d 69 49 c4 3d f2 08 a7 bd 13 d0 52 bb
       0.10685651 0.095843144 -0.08156003 -0.003216748
000180 28 fe 5b 3d cc 13 bc bd fb 6f b4 bd bd f7 45 3d
       0.05370918 -0.091834635 -0.08810421 0.048331965
000190 af 99 3e 3d e0 55 c7 3d 5d 1c 9e 3c 7d 77 04 3d
       0.046533283 0.09733176 0.019300634 0.032340515
0001a0 24 0c 7b 3d d8 da 80 b9 6e 61 a5 bd 37 eb ee 3d
       0.061290875 -0.00024577114 -0.08075224 0.116659574
0001b0 66 8a 44 3d 28 0b 8b 3c 8f 24 11 3d 8d aa f6 bd
       0.04798355 0.016973093 0.035435256 -0.12044249
0001c0 f1 6d 28 3d 1d 94 3b 3d f6 ce 03 be 28 b1 2f 3d
       0.041120473 0.04579555 -0.12871918 0.04289356
0001d0 5c 67 4c bd 83 36 09 3b 11 28 a2 bd db 94 c6 3d
       -0.04990326 0.0020937033 -0.07917798 0.09696361
0001e0 9d 07 86 bd c1 58 bc 3d b4 8c f5 bc a1 0b 6f bd
       -0.06544421 0.09196616 -0.029974319 -0.0583607
0001f0 5d 99 ae 3c 06 12 f0 3d ec 25 45 bc 4e 7f d6 bc
       0.021313364 0.11722188 -0.012032967 -0.02618375

encoder_input_layer.bias f4 [128]
000000 a2 9a 7d bb cd 00 74 bb 3c 77 a8 ba a0 fd 19 bc
       -0.0038696905 -0.0037231923 -0.0012852917 -0.009398848
000010 08 7f e9 39 69 f1 b9 ba e2 7a 98 3a 42 30 23 ba
       0.0004453587 -0.0014186326 0.0011633302 -0.00062251475
000020 03 74 e5 ba 3f 22 50 ba 8e 4e 43 ba 73 8a 43 ba
       -0.0017505888 -0.00079396734 -0.0007450365 -0.000745929
000030 31 af 1d bb 97 34 4f ba 9a c6 dd ba 09 6a 1c bb
       -0.002406072 -0.000790426 -0.001692015 -0.0023866913
000040 ce 7a 23 b9 31 e3 4f 39 53 96 8f 3a f1 b5 46 ba
       -0.0001559064 0.00019825694 0.0010954834 -0.0007580212
000050 c4 1c 8e ba d8 da 45 b9 26 df 0f bb 38 3a 72 ba
       -0.0010842313 -0.0001886891 -0.0021953075 -0.00092402427
000060 97 e4 c8 3a cb 09 32 bb 61 82 c8 ba d4 9e e7 ba
       0.0015326914 -0.0027166482 -0.0015297645 -0.0017671236
000070 4c 9f 3d ba 89 89 7c ba 32 22 fa 38 4c c6 8d 39
       -0.0007233515 -0.00096335314 0.00011927298 0.00027041358
000080 38 72 ea 39 cb af 97 ba 1a 2f fc b8 6c a1 01 bb
       0.00044717058 -0.0011572776 -0.0001202507 -0.0019780053
000090 fb 20 a3 3a 33 6d b4 ba fa 66 28 bb 93 28 fb b9
       0.0012445742 -0.0013765454 -0.0025696144 -0.0004790468
0000a0 4f d4 fd 3a ff 6a 86 bb 53 b4 a8 b9 3d e0 a7 ba
       0.0019365641 -0.0041021104 -0.0003217781 -0.0012807917
0000b0 05 7d 30 bb dc 01 9b 3a 5c 87 c7 39 e9 f8 2a 3b
       -0.0026929986 0.0011826116 0.00038057088 0.0026088303
0000c0 ac 6d 3c ba 7f 61 6b 3a 32 3d 7b 3b c6 de f1 ba
       -0.0007187973 0.00089790666 0.0038336036 -0.0018453232
0000d0 89 9a 1e bb d8 db 83 ba 47 f7 ef 3a eb f7 ed ba
       -0.0024200997 -0.0010060025 0.0018307947 -0.001815555
0000e0 58 5b 12 bb fb 72 9d bb 7f e3 3a ba e0 a4 32 bb
       -0.0022332277 -0.0048049665 -0.00071292365 -0.0027258918
0000f0 e9 e2 18 bb f7 59 67 3b d4 4d 42 3a 52 69 49 bb
       -0.0023328608 0.0035301426 0.000741211 -0.0030732942
000100 65 90 d3 b8 76 0b 03 bb 2e 17 81 bb cd 4b 00 3b
       -0.000100881596 -0.0019995845 -0.003939531 0.001957643
000110 bd 74 90 ba 91 0e eb ba 91 8c 79 ba ca 47 09 3b
       -0.0011021119 -0.0017933418 -0.0009519542 0.002094733
000120 19 03 76 ba e0 51 a5 bb 08 8f 43 bb 89 00 88 bb
       -0.0009384617 -0.0050451607 -0.0029839892 -0.0041504544
000130 31 ed 33 bb a1 32 18 bb 3c b6 bf ba 90 99 a1 ba
       -0.002745461 -0.0023223537 -0.0014626454 -0.001232909
000140 ff fb 29 bb 22 e6 1f bb ee 10 f7 37 70 36 ac b9
       -0.0025937555 -0.0024398644 2.9452578e-05 -0.00032846956
000150 e8 c2 9e ba 93 b6 a2 ba cd 02 93 b9 6e 3f 39 ba
       -0.001211253 -0.001241403 -0.00028040112 -0.00070666417
000160 91 4c 46 bb 94 30 2e 3b 2a 16 7d ba 00 d1 be 38
       -0.003025804 0.0026579248 -0.0009654487 9.098835e-05
000170 9a ba 82 ba ee 30 01 bb 0c 62 b2 3a 32 80 88 ba
       -0.0009973824 -0.0019713002 0.0013609543 -0.0010414182
000180 1b 9f ad ba f7 67 cb bb d4 4d 98 b9 13 2c cb ba
       -0.001324627 -0.006207462 -0.00029049686 -0.0015500806
000190 14 32 65 b9 84 bb 19 bb 91 95 29 ba 66 ec 73 bb
       -0.00021857797 -0.0023457715 -0.00064691255 -0.0037219762
0001a0 8c 53 00 bb be 8a fb ba 89 d7 52 3a 01 5b bc ba
       -0.0019581048 -0.0019191129 0.00080429815 -0.0014370383
0001b0 61 32 1c ba 06 c3 4b bb 67 fa 9b bb 1d 92 55 bb
       -0.0005958435 -0.0031091585 -0.004760075 -0.003258831
0001c0 cf b5 d7 b7 c2 f3 0d ba a6 45 47 3b e4 dd 90 3a
       -2.5714658e-05 -0.0005415046 0.0030406504 0.0011052457
0001d0 e4 22 8c ba 27 8d 7a ba f9 e5 c6 3a 68 0a 1f bb
       -0.001069155 -0.00095577765 0.0015174738 -0.0024267677
0001e0 1a 2a ea ba 3a 16 d1 bb 84 76 8b ba a6 02 a7 39
       -0.001786533 -0.0063808234 -0.0010640179 0.00031854695
0001f0 6d 53 14 3a 98 01 64 bb 09 12 94 ba 10 3f 36 bb
       0.00056581834 -0.003479099 -0.0011296879 -0.0027808584

encoder.layers.0.self_attn.in_proj_weight f4 [384, 128]
000000 4a 0f 2b bd 8a d4 8c 3c 30 56 9f 3a c3 09 a6 bd
       -0.041762628 0.01719119 0.0012156423 -0.08107331
000010 d4 ba d0 bb 7c 6f 87 3c 4d 08 da 3d 44 37 ca 3d
       -0.006369928 0.016532652 0.106461145 0.09873822
000020 de b6 2d bd eb e6 17 bd bc 2b 4f bd e2 f4 b5 bd
       -0.042410724 -0.037085455 -0.050578818 -0.08884598
000030 6f 81 8d 3d 73 bd c6 3c 9c e6 b4 3c df 06 3d bd
       0.06909453 0.024260258 0.02208262 -0.04614913
000040 d7 44 f0 3c df 6c 89 3d 7b e8 94 bd 88 b4 c3 3c
       0.0293297 0.06710219 -0.07270905 0.023889795
000050 cb 15 86 3c 00 bb f3 bc ea 1c 88 3d ee 9f 14 3d
       0.016367814 -0.029752254 0.0664614 0.036285333
000060 5d 81 84 3d 96 5b a4 bc 78 84 9a 3c e8 0c c8 3d
       0.064699866 -0.020063203 0.018861994 0.09768087
000070 5b 34 e5 3c 7f 46 91 bd 8d 35 03 3d 6b 04 de bc
       0.027979067 -0.07093524 0.032033492 -0.027101716
000080 9f d3 9d bc df 4a 54 bc a6 2a 7d 3d 54 50 b8 3d
       -0.019265948 -0.012957304 0.06180825 0.089996964
000090 a7 d1 c3 bd f0 45 99 bb b2 3c ee 3c 7e ed 91 bd
       -0.095614724 -0.0046775267 0.029081676 -0.07125376
0000a0 d3 ec 97 bd 46 61 cd bb d5 06 9a bd 1d 15 32 bd
       -0.074182175 -0.0062676994 -0.07520834 -0.043477166
0000b0 2e c3 2c bd 33 f3 ec 3d ba 3d 88 bd 7c 16 15 3d
       -0.042178325 0.11569824 -0.066523984 0.036398396
0000c0 87 4e d5 3d 10 df e8 3d e9 b7 dd 3c 00 73 31 3d
       0.104153685 0.11370671 0.027065234 0.043322563
0000d0 e2 d7 99 3d 6e fc 15 bd f6 28 c1 bd 13 4d eb bc
       0.075118795 -0.03661769 -0.09431641 -0.028723275
0000e0 91 3d c8 3d 6c 2b 4a 3d e6 05 5f 3c d1 b9 c5 bd
       0.09777368 0.049357817 0.013612246 -0.09654582
0000f0 47 1c ac bd d4 8f d7 bc 18 07 54 3d a6 07 c5 3c
       -0.08403831 -0.0263137 0.051764578 0.024051499
000100 1d bd c9 3d 7e 86 d8 3d b1 e6 9d bd 0b 44 44 3d
       0.098505236 0.10572527 -0.077100165 0.047916453
000110 ba da 1d bc 5e dc 49 3d 0b 10 9e bd b3 d6 ce bd
       -0.009634668 0.049282424 -0.07717904 -0.100995444
000120 38 bb ab 3d 46 86 15 bd b9 5c 3d 3d 37 d8 42 3d
       0.083853185 -0.036505006 0.046231005 0.04756948
000130 eb a1 a6 bd 30 b3 87 bc 7b 3b b6 3c 49 90 e7 3d
       -0.08136352 -0.016564935 0.02224516 0.11306817
000140 7e fe c0 bd 72 67 ad 3d 81 76 03 bd 33 da 5b bd
       -0.094235405 0.08466996 -0.032095436 -0.053674888
000150 14 ae 95 bd bc b7 97 bd e2 27 8e bd f7 a7 a6 bd
       -0.073085934 -0.074080914 -0.06941201 -0.081375055
000160 6a 53 f4 3c ca 67 99 bd c2 e1 b4 bc a4 30 58 bd
       0.029824931 -0.07490499 -0.022080306 -0.052780762
000170 3d 04 98 bd f0 ed e9 3a 6a 2e 12 3b 09 72 4c 3d
       -0.074226834 0.00178474 0.0022305497 0.04991344
000180 01 77 c2 bd cf 25 cc 3d f2 43 56 3c 61 e0 81 3d
       -0.094953544 0.09968149 0.013077723 0.06341625
000190 ae eb f9 3c 6a b4 c6 bd a8 db ec 3c 87 21 45 3d
       0.030507889 -0.0970238 0.028913334 0.048127677
0001a0 73 d5 70 3b 40 c0 88 bd 8a f2 99 bd 64 53 ad bd
       0.003674832 -0.06677294 -0.07516964 -0.08463171
0001b0 f6 b2 84 bd c0 3f 1a 3d 6b 50 0c 3d 24 7c fe 3c
       -0.064794466 0.037658453 0.03425638 0.031065054
0001c0 7b d2 06 bd 04 04 b1 bd b9 ce c8 3d 3b ec ac 3d
       -0.032915574 -0.08643344 0.09805054 0.08443495
0001d0 93 fd 08 3d e7 9e 4e bd df 8d 0e bd 06 3e ad bd
       0.033444952 -0.05044451 -0.034803268 -0.08459096
0001e0 5e f0 ed 3d 60 21 93 bd 85 f8 0e bd 10 9c ab 3d
       0.11618112 -0.071841 -0.034904975 0.08379376
0001f0 12 32 d6 bd e1 4c 2c 3d f1 42 b0 3d 67 72 25 bc
       -0.10458769 0.042065505 0.08606518 -0.010098076
000200 68 ae 32 bc bc 35 97 3d ff 71 a3 bd b8 5f a0 bd
       -0.0109058395 0.07383296 -0.079807274 -0.07830757
000210 bb 78 6b bc 52 e0 2c bd cc 1d 8d bd 25 6c 4c 3d
       -0.014372046 -0.042206116 -0.06890449 0.049907822
000220 40 1b a8 bd 84 32 8c 3d aa 12 10 3c 95 f5 e4 ba
       -0.082083225 0.068455726 0.008793512 -0.0017468209
000230 32 5d 92 3d 18 dd 5b bd ac d9 3d bb d9 ff a1 3d
       0.07146682 -0.05367765 -0.0028968854 0.07910127
000240 53 ff da 3d 9c da 90 bd 49 98 c1 bc ae be 8e 3d
       0.106932305 -0.070729464 -0.023632186 0.06969963
000250 30 00 f0 3c 98 16 ca 3a 9e 1a eb bc f1 cb a9 bd
       0.029296964 0.001541811 -0.028699216 -0.08290852
000260 12 ec b6 bd e8 6d 80 bd 7a 86 c6 3d 22 90 ce 3d
       -0.089317456 -0.06270963 0.09693618 0.10086085
000270 18 45 c6 3d a2 e9 ab 3d 51 13 0d bd 08 8d 63 bc
       0.09681147 0.08394171 -0.03444225 -0.013888605
000280 ee e0 d4 3d e5 9e 8d 3d de ec 36 bd fd 88 b6 3d
       0.103944644 0.06915072 -0.044659488 0.08912847
000290 2a 5a 8e bd 5e 0a 36 3d d0 09 14 3d 21 74 1e bd
       -0.06950791 0.04444348 0.03614217 -0.038684968
0002a0 21 fe b2 bd 6b 4e b3 3d 3a 31 39 bd a9 81 cf bc
       -0.087398775 0.087551914 -0.04521296 -0.025330381
0002b0 c6 8b 8f 3d 07 0e c1 3d 34 a0 4d bc cf b3 55 3c
       0.070090815 0.09426504 -0.012550402 0.013043358
0002c0 94 7c f1 3c e3 65 74 3d fd 1c ea 3d 06 3e 92 3d
       0.029478349 0.05966748 0.1143131 0.07140736
0002d0 a7 69 55 bd 09 b3 7a 3c 0d 87 96 3b ae 1c 00 3c
       -0.05210271 0.015301474 0.004593736 0.007819338
0002e0 f7 8c 69 3d 46 6c 44 bd f9 99 28 bb 39 f0 c9 bc
       0.0570192 -0.04795482 -0.002572654 -0.02465068
0002f0 28 52 93 3b cd 16 29 bb ee 2c bf 3d a2 75 e0 3d
       0.004495878 -0.0025800944 0.093347415 0.10959937
000300 29 ba 97 3d c5 ea 42 bd 5b 6a 96 3d 89 00 d5 3a
       0.07408554 -0.047587175 0.073445044 0.001625077
000310 81 84 05 3d d1 60 84 3c 1d 7a ae bd 61 c0 29 3d
       0.03259707 0.016159447 -0.08519385 0.041443232
000320 a7 67 cf 3d 66 d2 05 bc b9 47 7a bd 3b 3a 81 bd
       0.10127192 -0.008167839 -0.061103556 -0.06309935
000330 0d 2b a1 bd f4 a3 c8 bc f8 d3 b5 bd 22 40 dc bb
       -0.078695394 -0.024492241 -0.088783205 -0.0067215124
000340 d3 81 25 bc 3e ff b9 3d 6d ff 06 bd 3a a6 ba bd
       -0.010101753 0.09081887 -0.032958437 -0.091137365
000350 ed e3 cd bc 1e 20 90 3d 4c be ee bc f9 cb 1b 3d
       -0.025133098 0.07037376 -0.029143475 0.03803632
000360 7e 51 95 3d c2 9e c5 bd 6a 1b 4f bc af eb 8a 3d
       0.07290934 -0.09649421 -0.012640813 0.06783234
000370 db 76 92 bd 49 3a 98 bd 6b 71 d3 3c 60 60 2b 3c
       -0.07151576 -0.07432992 0.025810918 0.010459989
000380 c2 57 f3 bd 01 79 85 3b c4 0b 90 3d 31 66 ae bc
       -0.11881973 0.0040732627 0.07033494 -0.021288963
000390 89 a4 93 3d a7 ab c2 3d aa 76 00 bd f4 53 aa bd
       0.07209117 0.09505396 -0.031363167 -0.08316794
0003a0 c5 13 7f bd 15 e0 78 3d c4 f0 ed 3d e2 4e ce 3d
       -0.062274713 0.060760576 0.11618188 0.100736395
0003b0 60 76 01 bd b1 f3 08 bd ee 02 a8 3d 09 0b 9a 3b
       -0.03160703 -0.033435527 0.08203684 0.0047010225
0003c0 18 f4 1f 3d ab d3 d2 3d ed aa c1 3d ec 38 a6 3d
       0.039051145 0.10294279 0.0945643 0.08116326
0003d0 2f 88 78 bd ed ec 07 3d e1 3d b9 3c 27 95 e5 bc
       -0.06067675 0.033184934 0.022612514 -0.028025223
0003e0 9e 2c 27 3d 54 c0 b1 bd 49 d2 08 3e 6e b1 92 3c
       0.040814035 -0.08679262 0.13361467 0.01790687
0003f0 64 78 35 bd b6 5a b9 bd 08 06 a5 bd 4d ba 96 3d
       -0.044304267 -0.09050505 -0.08057791 0.07359753

encoder.layers.0.self_attn.in_proj_bias f4 [384]
000000 f4 b1 e4 3a 83 c8 2d 3b 39 fd ca ba 41 e7 f5 37
       0.0017448054 0.002651722 -0.0015486843 2.9313962e-05
000010 10 b7 df ba 8f c7 da ba 27 78 ac bb db 38 a6 3a
       -0.0017068107 -0.0016691553 -0.0052633467 0.0012681739
000020 84 58 06 3b 10 7d 85 bb 20 82 01 bc 69 20 94 ba
       0.0020499537 -0.0040737465 -0.007904559 -0.0011301163
000030 68 d9 bc 39 4f 48 df bb b7 a4 8b bb 42 2a 9d 3a
       0.00036020135 -0.00681404 -0.004261579 0.0011990743
000040 c0 48 1c bb d9 f4 18 ba f6 16 de 3a fc 86 06 3b
       -0.0023847073 -0.0005834825 0.0016944099 0.0020527234
000050 80 27 91 ba 6c 21 29 3b 48 da 11 38 16 ef b0 bb
       -0.0011074394 0.0025807275 3.4773984e-05 -0.005399595
000060 cc 72 58 38 dd ee c6 38 b6 5e 62 b9 bb 69 bd bb
       5.1605326e-05 9.4858675e-05 -0.00021588322 -0.0057804263
000070 a5 d7 68 bb 34 07 13 bb e4 6e 10 bb 8a 94 a2 bb
       -0.0035528925 -0.0022434713 -0.0022038752 -0.004961555
000080 c6 35 eb 39 8e 22 19 39 bb 45 44 3b ac 02 16 bb
       0.00044862757 0.0001460409 0.002994879 -0.0022889776
000090 98 24 13 3b 0d 07 83 bb 2d 40 25 3b 42 56 f7 b9
       0.0022452231 -0.0039986433 0.0025215254 -0.00047175778
0000a0 76 d0 d5 ba fa 2c 73 3a aa 24 5c bb c4 da 80 ba
       -0.0016312737 0.00092764164 -0.003359119 -0.0009830822
0000b0 fe e3 68 38 e6 23 fa 38 b4 cf 2a bb ef 73 87 ba
       5.5525445e-05 0.000119276156 -0.0026063742 -0.0010334234
0000c0 1d ee 88 ba 16 58 2d 3a 85 be 8a 39 4f 08 26 ba
       -0.001044694 0.0006612552 0.0002646336 -0.00063336355
0000d0 ef 11 02 b9 94 bb da 38 ea ef 59 3b a6 26 9b b9
       -0.00012404447 0.00010429989 0.0033254572 -0.000295927
0000e0 ac 5a 04 3b 96 e4 4f b9 a1 18 a5 3a 50 c5 97 3a
       0.0020195646 -0.00019826213 0.0012595841 0.001157919
0000f0 b9 07 39 38 46 eb 35 b9 63 57 9b 38 c1 55 8b b9
       4.411463e-05 -0.00017349151 7.407253e-05 -0.00026576038
000100 ce c4 8d bb 0b b0 88 bb 7f d0 a8 bb 40 58 36 3b
       -0.0043264395 -0.0041713766 -0.005151808 0.0027823597
000110 aa 23 bb bb 08 96 4e 39 58 30 76 bb a5 b9 9e ba
       -0.0057110386 0.00019701582 -0.0037565436 -0.001210977
000120 22 ee 11 3a 53 87 71 ba 2d 8a ee 3b 6a d4 9d ba
       0.00055667956 -0.0009213585 0.0072796554 -0.0012041454
000130 ec 6e 08 bb de 89 3b 3b 9a cf 34 bb 09 33 72 3b
       -0.0020818068 0.002861611 -0.002758956 0.003695669
000140 2e 08 8e 3a 3b 0a 1e bb c0 8d 0a 3b 0e 48 62 3a
       0.0010836178 -0.0024114985 0.0021141618 0.0008631953
000150 e0 d9 cd ba 61 90 57 3a a4 69 0f bb 27 2b 98 ba
       -0.0015705191 0.0008223113 -0.0021883035 -0.001160954
000160 97 9a 07 b9 ef 36 62 ba d4 1a d8 3a ee 1e c8 b8
       -0.00012932192 -0.00086294016 0.0016487488 -9.542504e-05
000170 60 54 69 3a a1 94 41 bb aa 2c 40 3b 01 c0 a6 ba
       0.00089008175 -0.0029538053 0.0029323497 -0.0012722017
000180 12 cc d5 bb 24 4a d1 ba 61 54 b1 3a e7 99 26 bb
       -0.006524571 -0.001596753 0.0013529175 -0.0025421323
000190 07 89 86 3a 09 36 18 ba 3c 1c 95 3a cb 39 6a 3a
       0.0010264226 -0.0005806392 0.0011376212 0.00089350034
0001a0 74 3c 1a 3a 3f 91 ce 3a 01 86 4e 3a 92 0c 07 bb
       0.0005883642 0.001575984 0.00078782445 -0.0020606858
0001b0 67 fd 96 3b c7 ed 76 3b 2c 03 16 b9 f2 2e c1 ba
       0.0046078446 0.0037678347 -0.00014306296 -0.0014738722
0001c0 a3 66 a8 b8 1e d0 0a b6 f2 af 14 bb 0d ef 94 bb
       -8.029982e-05 -2.0684743e-06 -0.002268788 -0.0045450986
0001d0 da 67 38 3a 51 e5 48 3a 77 67 d0 ba 5a b5 09 38
       0.0007034518 0.00076635653 -0.0015899976 3.2832242e-05
0001e0 2e d8 88 bb ea e4 e0 bb 5a a4 d7 3b 22 f6 7b ba
       -0.0041761613 -0.006863226 0.0065808715 -0.0009611567
0001f0 1c d0 b4 ba 8c 39 6c 3a ed 9f 4b ba 0e 61 9f bb
       -0.0013794932 0.00090112607 -0.0007767666 -0.0048638647
000200 00 c2 2c b1 86 cc e5 32 48 76 90 b1 65 b9 43 31
       -2.513957e-09 2.6752115e-08 -4.2043986e-09 2.848162e-09
000210 4c 32 60 b3 ba 5a 90 32 b1 39 e3 b1 61 db ac b1
       -5.219981e-08 1.6805064e-08 -6.6131283e-09 -5.0307993e-09
000220 bd 70 12 b2 c7 54 85 b2 92 89 4d 32 f8 2a 03 33
       -8.523952e-09 -1.552179e-08 1.196385e-08 3.0539894e-08
000230 d2 75 35 b2 31 ce 7e 32 09 45 89 b2 18 aa 68 b1
       -1.0562376e-08 1.4831628e-08 -1.5980293e-08 -3.385713e-09
000240 2f 9b ee 32 fe da 2c b2 26 f5 33 32 2b 2f 07 b1
       2.7777416e-08 -1.0061511e-08 1.0474912e-08 -1.9671897e-09
000250 3b 64 af b2 63 7f 9d 33 97 f0 ad 31 c3 ba da 32
       -2.041826e-08 7.334054e-08 5.0623146e-09 2.546347e-08
000260 18 8e 4e b2 71 15 bd 32 25 13 04 b2 70 8e 47 b2
       -1.20230865e-08 2.2012246e-08 -7.687764e-09 -1.1615711e-08
000270 e2 b6 91 b3 2b f5 f0 b1 fe dc 21 33 a1 67 ce 31
       -6.785355e-08 -7.0127917e-09 3.7686725e-08 6.0071703e-09
000280 78 14 97 b2 94 97 04 b3 b8 60 0f 33 8d 6f 85 32
       -1.7588022e-08 -3.0871504e-08 3.3382747e-08 1.5533965e-08
000290 3c 30 0d 32 59 ce fb b3 b5 60 7c b2 96 88 d7 32
       8.218247e-09 -1.1725633e-07 -1.4690319e-08 2.5091406e-08
0002a0 cb 4b 06 b3 26 9a df b1 8a 70 94 33 af a3 00 33
       -3.126824e-08 -6.507679e-09 6.912258e-08 2.995119e-08
0002b0 86 c2 82 32 49 0a b9 33 e2 06 02 33 c0 7e fb 30
       1.522245e-08 8.616605e-08 3.0274244e-08 1.8298678e-09
0002c0 77 6e 94 b3 dc 3c 83 b3 71 b6 1d b3 ca bc 10 b3
       -6.9118805e-08 -6.111233e-08 -3.672034e-08 -3.3699315e-08
0002d0 43 96 47 b2 ab c2 d1 b2 65 86 99 32 7c fb 8a 31
       -1.161749e-08 -2.4419327e-08 1.787266e-08 4.044919e-09
0002e0 49 2c 3f b3 e0 8c 88 b2 22 c5 c2 b2 a9 a2 27 32
       -4.451093e-08 -1.5896546e-08 -2.2674218e-08 9.757664e-09
0002f0 6f 01 69 b1 ee e4 c7 b2 12 70 4a 32 0f 05 06 33
       -3.3906777e-09 -2.3270754e-08 1.1783429e-08 3.1203907e-08
000300 2f 15 09 33 62 3b 7e 32 4a be 9d b1 bf 75 ae 32
       3.1917065e-08 1.4798248e-08 -4.5909347e-09 2.030981e-08
000310 98 83 83 b1 d5 e8 9e b0 82 fb 0f b2 8c db 9a 31
       -3.8275623e-09 -1.1562188e-09 -8.380882e-09 4.5069495e-09
000320 bd 6b 8b 31 8e 64 9f b1 7b fd 4c b2 e4 51 1a 33
       4.057681e-09 -4.638941e-09 -1.1931998e-08 3.5930398e-08
000330 f8 24 88 31 22 56 65 b3 85 3a 8d 32 1b f0 49 b2
       3.962324e-09 -5.3396555e-08 1.6441172e-08 -1.17543335e-08
000340 dc ba 88 b1 d8 1b 8f b2 75 65 d5 31 ff 93 76 b2
       -3.9793644e-09 -1.6660053e-08 6.21065e-09 -1.4352735e-08
000350 6c 3b e5 b2 8c 74 9a b3 85 0d d3 b3 e2 ed 7a b3
       -2.668613e-08 -7.1923836e-08 -9.827912e-08 -5.8424014e-08
000360 a6 69 1d 33 c7 31 a8 30 f4 4a bf b2 d8 4a d2 b2
       3.6650498e-08 1.2237756e-09 -2.2269411e-08 -2.4481253e-08
000370 b2 98 80 af c8 01 83 b1 6c bf 28 33 72 c9 a4 b2
       -2.339156e-10 -3.8128043e-09 3.9289645e-08 -1.918372e-08
000380 97 2a 85 32 9a 45 a9 b1 c1 0c 10 32 d0 c6 05 32
       1.5502605e-08 -4.92646e-09 8.384803e-09 7.786824e-09
000390 7e 93 77 32 20 35 d7 b2 4c a3 39 33 82 1e 90 31
       1.4410828e-08 -2.5053453e-08 4.3222187e-08 4.19442e-09
0003a0 b5 ce 2d 33 3c 75 63 b2 79 eb 93 32 70 bd 19 32
       4.04677e-08 -1.3239795e-08 1.7220133e-08 8.948845e-09
0003b0 62 13 7e b2 bb a5 97 33 c0 79 ca 32 05 33 c8 32
       -1.4789153e-08 7.0616316e-08 2.357126e-08 2.3306265e-08
0003c0 e3 22 67 b1 fd da e9 30 83 dd 3b 33 e3 ac f4 31
       -3.3634755e-09 1.7015221e-09 4.3740794e-08 7.1209896e-09
0003d0 1f 38 a8 b1 4f ce 99 b2 b5 1c 5f b1 78 2a 63 32
       -4.8958237e-09 -1.7905363e-08 -3.246709e-09 1.3222795e-08
0003e0 c7 88 0e 33 e4 3a 24 32 6a c5 37 32 07 17 86 b3
       3.318635e-08 9.559447e-09 1.0696889e-08 -6.24405e-08
0003f0 6c 9b c1 31 57 a1 6e b1 bf 28 2c b2 80 8b d3 b2
       5.6347087e-09 -3.472527e-09 -1.0020982e-08 -2.462707e-08

encoder.layers.0.self_attn.out_proj.weight f4 [128, 128]
000000 34 06 b9 bd 64 e9 0b bd 48 20 1b 3d af df aa bd
       -0.09034386 -0.034158126 0.037872583 -0.083434455
000010 17 00 12 3d 95 75 39 bd 23 72 48 bd b6 65 81 3d
       0.035644617 -0.04527815 -0.048936974 0.06318228
000020 d7 f4 a8 bd 1d 15 51 3d 66 35 66 bd 9e e8 76 bd
       -0.082498245 0.051045526 -0.05620327 -0.060280435
000030 db 59 ae 3c 50 61 9f 3d 0a 0f 5f bc d3 97 79 3c
       0.02128308 0.07782233 -0.013614425 0.015233952
000040 99 7e 7e 3c 95 49 4f 3d 51 97 33 bd 14 93 35 3d
       0.015533113 0.050607283 -0.04384548 0.044329718
000050 dc e9 88 bd d8 07 43 3c d2 f9 45 bd 4d 22 53 3c
       -0.0668523 0.011903726 -0.04833395 0.012886596
000060 73 aa c4 bd 7e 97 9d 3b 77 22 3d bc 21 e2 78 3d
       -0.09602823 0.004809319 -0.011543862 0.06076253
000070 69 5e cf bc 3c 53 93 bd 29 24 42 bc 01 72 28 3d
       -0.025313573 -0.0719361 -0.011849442 0.041124348
000080 1f 92 80 3d c4 48 6b bd 35 a9 83 bd 4f c0 04 3d
       0.062778704 -0.05744244 -0.06428758 0.032409962
000090 1f 90 2f bb ef da 49 bc 5d ef b8 3d ed f3 2e 3c
       -0.0026788784 -0.012320264 0.0903003 0.010678274
0000a0 56 25 39 3c 6a 0f 9a 3d 44 ac a0 bb fd 2f 8d bd
       0.0113004055 0.07522471 -0.004903348 -0.06893919
0000b0 49 8c 9c 3d 33 f6 a0 3d 96 80 f6 3c d8 e3 79 3d
       0.07643945 0.07859459 0.030090611 0.061008304
0000c0 f6 e6 88 bd e2 05 0a 3d f3 88 96 bd 1c 86 8d 3d
       -0.06684677 0.033697017 -0.0735034 0.06910345
0000d0 1c 63 42 3d b1 f7 78 bd c6 52 8c 3b b1 8b 21 39
       0.0474578 -0.060783092 0.0042823283 0.00015406196
0000e0 c1 50 1c bd bd d7 c9 bc bc f1 8d bd 10 30 b1 bb
       -0.03816295 -0.024639005 -0.06930873 -0.005407341
0000f0 2a 62 00 bd 81 8b 9a bd 8e fa 27 3d eb c4 0a bd
       -0.031343617 -0.075461395 0.041010432 -0.0338792
000100 01 c3 99 3d a4 bf 27 bd 0c ba 0b 3d 10 0b 9f bc
       0.07507897 -0.040954247 0.034112975 -0.019414455
000110 51 8e ab ba fe 5a 6b 3d 78 42 e1 3c b8 fe 29 bd
       -0.0013088678 0.057459824 0.027497515 -0.041502684
000120 76 3a 34 3d 9e c8 a3 bc ee 6e f2 3a 5e 6f a4 bd
       0.044001065 -0.019993123 0.0018496194 -0.08029054
000130 33 62 d3 3c 8f 86 1a 3c ce c8 92 3d 78 50 7b 3b
       0.025803661 0.009431495 0.07167207 0.0038347524
000140 93 45 9e 3d 6b 48 79 bd 45 95 8c bd 38 2b 33 3d
       0.07728114 -0.06086008 -0.068644084 0.04374239
000150 52 0c 53 bc 48 aa ea 3c 13 59 71 3c 9d f3 14 3c
       -0.012881355 0.02864565 0.01473071 0.009091285
000160 1c a5 03 bd 4d 62 6e bd 82 f1 06 3d bb 68 87 3c
       -0.032139882 -0.058199216 0.032945164 0.016529432
000170 d0 a4 ad bd 98 66 71 3d c4 a4 a5 bd b6 b9 98 3d
       -0.08478701 0.05893573 -0.08088067 0.074572966
000180 58 f3 43 bd 77 12 b3 3d fb 9a 01 bd a3 c7 a6 bc
       -0.047839493 0.08743756 -0.03164194 -0.020358866
000190 52 e6 32 bd 8d d0 28 3c 17 35 ff 3c 75 ca 90 bd
       -0.04367668 0.010303629 0.031153245 -0.070698656
0001a0 8d bb 82 3d 38 8d b6 3c 47 2f 91 3d c0 89 dd 3c
       0.06383429 0.022284135 0.070890956 0.027043223
0001b0 8b 1f a5 3c e9 9c 3e 3d c3 71 9d 3c 29 4a 4d 3d
       0.020156642 0.04653636 0.019219285 0.050119553
0001c0 23 fc 2a bd ea ed 9b 3d 82 f8 dd bc ed df 51 bd
       -0.041744363 0.07613738 -0.027096037 -0.051238943
0001d0 32 d1 50 3d 5e 29 35 bd 3e 10 30 3d 24 9c e9 bc
       0.050980754 -0.044228904 0.04298424 -0.028516836
0001e0 12 52 8d bd 3a fd 87 3d cc 17 0c 3d db cf 38 3d
       -0.06900419 0.06640096 0.034202382 0.0451201
0001f0 88 c8 82 bd 5a 96 16 bb 18 b0 84 bd e3 cd 59 bd
       -0.063859046 -0.00229778 -0.064789 -0.053174865
000200 6b ce b4 bd 7b cd 12 bd 88 95 94 3d 1d 41 29 bd
       -0.088284336 -0.035840493 0.07255083 -0.041321862
000210 16 e6 2b bd 3e e0 56 bd 83 57 48 3d fe cf f9 3c
       -0.041967474 -0.052459948 0.048911583 0.030494686
000220 42 8f f8 3c 9d ca 09 bd 97 d7 4b bd c7 69 9e bd
       0.030341748 -0.033640493 -0.04976615 -0.07735019
000230 7e 56 a2 3d 27 cb e8 bc f4 a7 af 3d 34 09 0d bc
       0.07926653 -0.028417183 0.085769564 -0.008608151
000240 9f 53 80 3d 30 20 a3 3d 73 dc 97 bd 27 0c cc bc
       0.062659495 0.07965124 -0.07415094 -0.024908138
000250 32 f6 ad 3b da 19 a3 bc a3 05 19 3d b7 94 7c 3d
       0.00530889 -0.019909788 0.03735889 0.061665263
000260 9e f0 61 3b aa e7 8b bd 93 a6 7f bb b4 5a a1 bd
       0.0034475694 -0.06831296 -0.0039009198 -0.078786284
000270 d1 b4 86 bb 5d 3a 86 bc 25 de 50 bd 8e 86 61 bc
       -0.0041109105 -0.016385252 -0.050993104 -0.0137649905
000280 59 61 a5 3b b7 25 95 3d dd 44 34 bd 2a a1 1c bd
       0.005047005 0.07282584 -0.044010986 -0.038239636
000290 29 3d 86 3d f5 77 37 bd 84 ab 65 bd b0 0b 63 bc
       0.06554634 -0.044792134 -0.056071773 -0.013857767
0002a0 11 ec aa 3c 91 40 b6 bd 6f 4b 46 3d 27 a1 aa bd
       0.020864518 -0.08899034 0.048411783 -0.083315186
0002b0 47 6b b4 bd a1 83 6c 3d c6 e7 87 3d cd b4 22 3d
       -0.08809524 0.05774272 0.06636004 0.039723206
0002c0 d2 d9 8d 3d 02 09 a1 bd 03 65 6d bd ba 19 96 bc
       0.069263116 -0.07863046 -0.05795766 -0.018322814
0002d0 16 f4 99 3d 94 45 b3 3c f2 22 45 bd 3a de 81 3d
       0.07517259 0.021883763 -0.04812903 0.063412145
0002e0 de 65 86 bd 31 72 23 3c d1 73 97 3d d1 e8 87 bd
       -0.065623984 0.009975956 0.07395137 -0.06636203
0002f0 20 27 0e bd d9 39 d3 3c ec ff 13 bb fe 83 eb bc
       -0.03470528 0.02578442 -0.0022582961 -0.028749462
000300 13 ea f9 3b 56 3f 40 bd 70 a5 b5 3d cc c7 95 bd
       0.007626781 -0.0469354 0.08869445 -0.07313499
000310 c0 84 cc 3c e1 59 96 3d 70 e0 85 3d d9 f6 8b bd
       0.024965644 0.07341362 0.06536949 -0.06834192
000320 29 71 93 bd 01 c3 b9 3d 30 19 b2 3d c0 87 02 3c
       -0.07199318 0.09070397 0.086962104 0.007966936
000330 95 6b 2e bd e1 fe 8f bd a9 89 10 bd fa 09 57 bd
       -0.042583067 -0.07031036 -0.035287533 -0.05249975
000340 50 8f ad 3c 2e 8b 6f bd b5 61 aa 3d 98 e2 d1 bc
       0.0211865 -0.05848234 0.083194174 -0.025620744
000350 a5 b0 a7 bd dc 00 9f 3d 31 d9 23 3d 80 e8 a1 bd
       -0.08187989 0.07763836 0.04000205 -0.07905674
000360 fd 80 43 3d 14 82 60 3d 58 0a dd 3a 6f 25 62 bc
       0.047730435 0.054811552 0.0016864045 -0.01380287
000370 81 bc 9c bb 00 6d e2 3b bc b3 97 bd 63 ad 1e bd
       -0.0047832136 0.0069099665 -0.074073285 -0.038739573
000380 66 9a 38 3d 4f f2 43 bd 31 b7 7f 3d aa 81 f3 3c
       0.04506912 -0.047838505 0.062430564 0.029724915
000390 5e 0b 18 bd d4 83 a5 3d 30 d3 b9 3d d2 11 dd 3c
       -0.037120216 0.08081785 0.09073484 0.026986036
0003a0 ed ee 3f bd e5 79 9a bd 1b a6 86 3d 6e 07 1c 3d
       -0.046858717 -0.07542781 0.06574651 0.038093023
0003b0 5a f8 59 bc 65 7b ca bc b4 d7 1a bb a2 48 2e 3d
       -0.0133038405 -0.024717042 -0.0023627104 0.042549737
0003c0 1e ab a9 bd cd 58 a6 bc e9 a5 5b bc 34 8f bd ba
       -0.08284591 -0.020306015 -0.013406255 -0.0014462234
0003d0 5b 28 0d bd 5f b3 f0 3c 46 a5 4d 3c 84 f7 37 bb
       -0.034462314 0.029382406 0.012551611 -0.0028071115
0003e0 6f d5 f1 bb e2 f2 96 bd 28 52 39 3d 9a 12 10 bd
       -0.0073801796 -0.07370545 0.045244366 -0.03517399
0003f0 4e 61 37 bc d9 5d 6a 3d 96 62 5e 3d 54 ac 6b bd
       -0.011192633 0.057218406 0.054293238 -0.05753739

encoder.layers.0.self_attn.out_proj.bias f4 [128]
000000 ed cb 4d bb f8 ee 17 bb 10 6c 35 bb 0b f4 2a bc
       -0.0031402067 -0.0023183208 -0.0027682818 -0.010434161
000010 dc af a9 39 35 b8 aa ba 3a 97 35 ba 56 4b 61 3a
       0.00032365217 -0.0013024869 -0.00069271366 0.0008594295
000020 7f 56 98 ba ec c9 31 ba db 64 1b 3b 66 86 b0 ba
       -0.0011622458 -0.0006782103 0.0023711238 -0.0013467788
000030 ba c6 b6 bb b6 74 88 ba ea 59 38 ba 1a d5 b2 b9
       -0.0055778893 -0.0010410759 -0.0007032441 -0.0003410958
000040 59 36 ce b9 1c 07 33 3a 2e cc 12 38 49 f1 19 3a
       -0.00039331874 0.00068293675 3.499927e-05 0.0005872441
000050 a6 b4 2f b9 22 80 8a 38 85 e2 5c bb cc f2 53 39
       -0.00016756597 6.6042194e-05 -0.0033704352 0.00020212977
000060 1c 34 ac 3a 66 b4 ea ba f7 91 b3 ba a1 a8 20 bb
       0.0013138088 -0.0017906546 -0.0013700117 -0.0024514573
000070 c5 64 93 3a af 57 8d 3a 89 75 c5 39 a7 b3 9c 3a
       0.0011245242 0.0010783578 0.0003766234 0.0011955396
000080 74 22 c9 ba 83 e3 6e ba 1c c0 bd 39 a7 6b 22 bb
       -0.0015345351 -0.00091128814 0.00036192022 -0.0024783404
000090 34 8c 33 3a 90 5f f2 b9 9a 1a 84 b9 26 60 ab ba
       0.00068492 -0.00046229037 -0.00025196822 -0.0013074919
0000a0 00 ab 00 ba 4e 73 96 bb 09 50 41 b9 a7 02 84 ba
       -0.00049082935 -0.004591382 -0.0001843573 -0.0010071591
0000b0 f9 f7 cd 3a ec 27 67 3a 5d 0f 7c 3a cf dd a6 3b
       0.001571416 0.00088178995 0.00096153264 0.0050923596
0000c0 f0 05 91 3a 93 13 52 39 95 66 75 3b 8f 99 2b 3a
       0.0011064392 0.00020034453 0.0037445177 0.00065460143
0000d0 a7 3d f9 39 be 99 28 3a 12 78 6b 3b 19 47 7c ba
       0.00047538916 0.0006431601 0.0035929722 -0.00096236315
0000e0 47 88 15 3a 0e 1c e2 bb fe e6 77 ba a2 08 ee 3a
       0.0005704206 -0.006900317 -0.0009456723 0.0018160532
0000f0 d1 3c 3c ba 22 fe 9f 3b c4 08 cb ba 4d 58 f7 3a
       -0.0007180693 0.00488259 -0.0015490283 0.001887092
000100 ef fe 5e 39 f4 04 c0 3a d8 ad 68 bb 83 38 ab 3a
       0.0002126654 0.0014649914 -0.003550401 0.0013063106
000110 3e 8a 97 39 6a 4d 69 39 05 c4 90 39 b3 71 bc 3b
       0.00028903963 0.0002224945 0.00027611866 0.0057508587
000120 31 af 52 3a 26 61 83 39 a0 dc ec ba 00 1d a4 39
       0.000803697 0.00025058648 -0.0018071122 0.00031302124
000130 95 6e 26 bb cd 90 6e 3a a7 2c cd b8 89 83 df 3a
       -0.0025395502 0.00091005565 -9.783479e-05 0.001705275
000140 cc b3 c1 b9 dc ab 42 39 b9 af 9b b6 46 e8 44 3b
       -0.00036945788 0.00018565304 -4.639817e-06 0.0030045672
000150 22 c1 4d 3b aa 19 92 38 e7 66 11 3a 42 14 8e 3b
       0.0031395634 6.966603e-05 0.00055466447 0.004335911
000160 22 e3 b4 ba 6c 07 76 3b 04 bb 94 ba 39 84 56 3b
       -0.0013800601 0.0037541045 -0.0011347239 0.003273262
000170 b1 6d 45 bb 8e 7c 8f 3a 71 f2 f5 ba 41 7f 34 37
       -0.0030125196 0.0010947154 -0.001876427 1.0758465e-05
000180 1b 59 a1 ba 7b 5e 3a b9 8f 75 7f bb fd 0a 08 3b
       -0.0012309881 -0.00017773539 -0.0038979982 0.0020758503
000190 11 48 c0 3a c5 44 20 3a 23 b9 ea ba e0 f5 e3 39
       0.0014669915 0.0006113763 -0.0017907958 0.00043480005
0001a0 7f c6 dd ba 0e 49 b1 3a ce 88 0f bb ea 81 0d 3b
       -0.0016920118 0.00135258 -0.002190161 0.0021592327
0001b0 7f e3 dd ba 82 23 8d 39 33 1f a9 bb 47 d8 14 b8
       -0.0016928761 0.0002692007 -0.00516119 -3.5487374e-05
0001c0 ef 1d 17 ba 4c 45 04 3a 30 5b 44 3a 1e 05 de 3a
       -0.00057646533 0.00050457264 0.00074903946 0.0016938781
0001d0 88 eb 4e 3a c9 79 a0 ba 43 a9 5a ba 0e ec b9 b9
       0.0007893373 -0.0012243326 -0.0008341262 -0.00035461824
0001e0 b6 67 1d 39 05 2d 09 3a 5f 8c 69 ba 2f 97 c5 3a
       0.00015011322 0.00052328437 -0.00089091616 0.0015074963
0001f0 b9 7e c7 38 be 65 18 ba 1c f6 a9 ba 5a 5c 10 b9
       9.5126634e-05 -0.00058135006 -0.0012967023 -0.00013767314

encoder.layers.0.linear1.weight f4 [256, 128]
000000 59 83 95 3c 25 75 36 bd 51 c8 b4 bd 7f b8 4a bd
       0.018251108 -0.04454531 -0.0882727 -0.049492355
000010 e0 fe 8b bd de 81 13 bd b7 27 83 bd ce 8f c8 bc
       -0.06835723 -0.036012523 -0.064040594 -0.024482634
000020 60 8b bc bb ca 22 12 3d fe 52 92 bd e0 7f 5e bd
       -0.0057539195 0.03567771 -0.07144736 -0.05432117
000030 b5 62 b7 3c 34 68 b4 bb ba 41 39 bd 4c aa 6b 3d
       0.022385934 -0.005505586 -0.045228697 0.057535455
000040 b3 40 a9 3c 56 8a 96 bd a7 ee 2d bd 1d eb af 3d
       0.020660734 -0.07350604 -0.042463925 0.08589766
000050 74 9a aa 3c fb d6 2c 3d d1 8f 80 3d f3 c8 ae 3c
       0.020825602 0.04219721 0.06277431 0.021336054
000060 54 c8 97 bd fc a8 f5 bb d7 37 8e 3d 79 09 69 bd
       -0.074112564 -0.007496951 0.06944244 -0.0568938
000070 df 21 b4 3c e8 cc 8b 3d 57 dd c9 bc 0d f5 9c 3d
       0.021988807 0.06826192 -0.024641676 0.07663927
000080 3d a2 92 3c 3f 06 37 3d cb a8 1d 3d 43 48 86 3d
       0.017899627 0.04468369 0.03849105 0.065567516
000090 5a 2c a6 bd cf 4f 32 bd 1a 35 d1 bc 83 31 81 3d
       -0.08113928 -0.043533143 -0.025538016 0.06308272
0000a0 46 69 1a bc bc ff 61 bd aa f6 63 bc 6e cc ad ba
       -0.009424513 -0.055175528 -0.01391379 -0.0013259777
0000b0 3e 53 81 3a 5b 85 d6 ba 00 7d 38 bd 18 c0 d3 bc
       0.0009866727 -0.0016366647 -0.045041084 -0.025848433
0000c0 22 86 7b 3c 95 14 b2 3d 80 cf 8c bd 2f 1a ac bc
       0.015351804 0.08695332 -0.06875515 -0.021008579
0000d0 b2 7b b0 3d 94 55 41 bd cb 85 90 bd b0 5d a6 bc
       0.08617343 -0.047200754 -0.07056769 -0.020308346
0000e0 8d c4 a5 3d 63 61 69 3d 6a 36 75 3c 15 a2 51 bd
       0.0809413 0.05697764 0.014966587 -0.051179964
0000f0 b8 b4 af bd 40 23 bd bc 60 35 65 3d 87 ec 0b bd
       -0.08579391 -0.023088098 0.055959105 -0.034161117
000100 5e 67 8e bc d3 5a 89 bd aa 11 a2 bd 06 3b a1 bd
       -0.017383274 -0.067067765 -0.079135254 -0.07872586
000110 3f 02 5d 3b 19 e0 43 3d 39 1e ae bb 81 60 ae 3c
       0.0033723263 0.047821138 -0.0053136614 0.021286251
000120 be 6a 5a bd 7b c0 9f 3c 1d 10 e9 bc 7a 00 09 bd
       -0.053324454 0.019500962 -0.028450066 -0.03344772
000130 ad e0 cb 3b 66 07 52 3d 29 35 7f bb 90 1c ac bd
       0.006221852 0.051276587 -0.0038941598 -0.08403885
000140 9a b4 8a bd 2a d4 85 3c 42 5c 58 3c 24 18 42 bd
       -0.06772728 0.01633652 0.01320559 -0.047386304
000150 59 3d 9d 3d be 65 c9 3c b3 30 99 bd 56 eb 80 3d
       0.07677717 0.024584647 -0.07479992 0.06294887
000160 88 31 87 3c 19 db 74 bd 27 13 2a 3d a3 dd 91 3c
       0.01650311 -0.05977926 0.04152217 0.01780588
000170 6c b5 03 3d e3 47 6e 3d f3 02 49 3d f7 bd 06 3c
       0.03215544 0.058174025 0.04907508 0.008224002
000180 53 11 84 3d a2 9f 9a bd 30 22 5c 3d 07 74 68 bc
       0.06448617 -0.07549979 0.05374354 -0.014187819
000190 a9 28 b6 bc f0 47 ab 3d 55 71 a3 3d a0 16 a4 bd
       -0.022236185 0.0836333 0.07980601 -0.08012128
0001a0 a1 99 a3 3d 8d d1 ae 3d 24 81 8c bd a0 7c 9e bc
       0.07988287 0.085360624 -0.06860569 -0.019346535
0001b0 63 8a 09 bc 60 1d e1 bc 48 1f a8 bd e2 8c 88 3c
       -0.00839481 -0.027479827 -0.082090914 0.01666874
0001c0 16 bf 80 3d f0 bb c8 bc 91 29 a1 3d 91 09 ad bd
       0.06286447 -0.024503678 0.07869256 -0.0844909
0001d0 e2 51 a5 bd 29 a1 85 bc 59 55 9e bc d3 80 73 3d
       -0.080722585 -0.016312199 -0.019327806 0.05944903
0001e0 e3 c7 a0 3d 81 1b 66 3c 1c a8 a5 3d f3 a0 ad bd
       0.07850625 0.014044643 0.08088705 -0.08477964
0001f0 14 4d 4c bc 6a c7 93 bd dc 6f a3 3d c0 14 28 3d
       -0.012469549 -0.072157696 0.0798032 0.041035414
000200 19 7d 15 bb 34 9d d9 3c 25 06 19 3d bc 2d ea bb
       -0.002281016 0.026564218 0.037359376 -0.0071465652
000210 59 c9 b4 bc 10 92 f2 3c e1 ad 90 3d 7f 3d 22 bc
       -0.022068666 0.029610664 0.07064415 -0.009902357
000220 47 bc 3d bd a9 58 0d bd cd 06 a8 bd fb d5 a9 bc
       -0.046322133 -0.03450838 -0.08204422 -0.020731917
000230 a5 30 c4 bc 1d d8 ca 3c 96 e7 58 3d 5e 65 0a 3c
       -0.023948977 0.024761254 0.052955233 0.008447019
000240 a8 02 59 3d 57 1f 48 bd 57 04 a5 bb 0b 5a 42 bb
       0.05298105 -0.048858013 -0.0050359177 -0.002965572
000250 4b 7f 63 bd 6b 41 61 bd 5d d0 b7 3c 29 f8 e7 b9
       -0.055541318 -0.054994028 0.022438223 -0.00044244647
000260 36 70 4d bd 14 40 36 3d 9e 7b 34 bd b6 15 75 bc
       -0.05015584 0.044494703 -0.044063203 -0.01495879
000270 1e 8f 3b 3d 2a 17 a7 bd 87 4a 30 3d ad 7f 9a bd
       0.045790784 -0.08158715 0.043039825 -0.075438835
000280 88 ee 3c bd 42 e1 92 3d 35 27 1b 3d 39 63 89 3d
       -0.04612592 0.07171871 0.037879188 0.06708378
000290 cd 89 1d 3c 8c 46 70 bd 0d 7c 90 3d 74 d2 7c bd
       0.009615374 -0.05866103 0.07054911 -0.06172414
0002a0 d2 e6 44 bc 57 bb a3 3d 62 e2 a4 3c ae 22 9f 3d
       -0.0120179225 0.079947166 0.020127479 0.077702865
0002b0 23 54 4b bb 0a ec 05 bd 33 53 41 3d 86 79 23 bd
       -0.0031025491 -0.032695808 0.047198486 -0.039910816
0002c0 d8 e5 eb bc 75 56 7d bd 3f e7 0d bd 9d bc c1 3c
       -0.028796121 -0.06185003 -0.03464436 0.023649508
0002d0 af 9a 93 bd a9 23 2c 3d 88 ff e5 3b 16 ba 31 bd
       -0.07207238 0.042026196 0.007018987 -0.043390356
0002e0 91 95 0a 3d d8 83 f3 bc ae 8e ae bc 53 a8 61 bd
       0.033834044 -0.029725954 -0.02130827 -0.055092167
0002f0 d0 cc 84 3c 09 44 1d 3d 83 1c a4 3d d5 ce 28 bd
       0.016210943 0.03839496 0.08013251 -0.041212875
000300 73 1a b8 3b bb 3c 0e 3d fc 5d a7 3d 68 85 10 bd
       0.0056183874 0.034725886 0.08172223 -0.035283476
000310 24 a8 35 bd 97 94 b8 3c 19 cf 33 3d 20 45 6d 3d
       -0.044349805 0.02253179 0.043898676 0.05792725
000320 c6 07 39 bc 23 1f 2f 3d e0 7e c7 bc d9 b2 7d 3d
       -0.011293357 0.042754304 -0.02435249 0.06193814
000330 eb 64 09 bc 7f c9 8a 3d f8 9f 09 3d 30 6b 97 bd
       -0.008385877 0.067767136 0.033599824 -0.07393491
000340 03 b5 da bc c0 c1 30 bd d6 1f 6f bd ac c2 a0 bd
       -0.026697641 -0.043153524 -0.05837997 -0.07849631
000350 b5 ca ac bc df 01 35 3d 7d 97 8d 3d 58 32 ae bd
       -0.021092752 0.044191238 0.0691366 -0.08505696
000360 2b de cb 3c e2 3c 96 3d 80 6f 87 bd 06 a5 32 bd
       0.024886211 0.07335831 -0.06613064 -0.04361441
000370 9b 3e b5 bd 4f c8 21 3a ee c7 43 3d cd 22 8d bd
       -0.08849832 0.0006171511 0.04779809 -0.06891403
000380 23 a8 90 bd a4 51 ae 3d cd ee 9f 3d 41 a3 c9 bc
       -0.070633195 0.085116655 0.078092195 -0.024613978
000390 56 8a 1e bd 7b 7e b8 bd 3d e2 22 bd ae 1d 94 bd
       -0.038706146 -0.09008499 -0.03976654 -0.072322235
0003a0 7e 1d b8 3d 80 1f 6e 3d 8e 4a b3 3b 7a 6d b6 bd
       0.0899 0.05813551 0.005471534 -0.089076
0003b0 f7 41 4a bd 85 cf 4d bc 4b 59 a4 bd da 9c 0a bd
       -0.049379315 -0.012561684 -0.08024844 -0.03384099
0003c0 ec f8 91 bc 95 67 9d 3c fa 6a 67 bc c0 fb 9d bd
       -0.01781889 0.01921443 -0.014124626 -0.07714033
0003d0 d4 61 b9 bc 83 95 5b bc e0 74 a5 bd e7 4c 26 3d
       -0.022629656 -0.013402346 -0.08078933 0.040600684
0003e0 a5 41 6c 3d a4 8c 2c bd c1 a9 94 bc c5 58 9c bd
       0.05767979 -0.042126313 -0.018147351 -0.07634119
0003f0 b5 05 50 3d 1a 85 36 3b ef 9a 9d 3d 96 26 dc 3c
       0.050786693 0.002785033 0.07695567 0.026873868
