weights/lstm/weights__input_size_1_hidden_dim_64_output_size_1_num_layers_2_dropout_0.05.pth (torch, 220955 bytes, 11 tensors)

lstm.weight_ih_l0 f4 [256, 1]
-0.10042054 0.06076465 -0.03743889 0.08311289 -0.049042135 0.0047631124 0.032341376 0.09022376
0.036788385 0.01587922 0.0979867 0.10199567 -0.0483955 0.09006413 -0.02904387 0.04228162
-0.095510155 -0.06703098 -0.05224696 0.039678354 -0.049864028 0.074887805 -0.085146904 0.019453708
0.11688689 -0.07775691 0.088924594 -0.07881393 -0.025028316 -0.018543508 0.11954881 -0.015630899
0.14505696 -0.024351366 0.006532262 0.12325152 -0.026623296 0.032911416 0.14012969 0.012137962
-0.049817044 -0.037475664 -0.055778142 -0.023442602 -0.005019312 0.044578794 0.068021566 0.0044364
0.05316556 0.10772099 -0.021629032 0.0017368937 0.1021473 0.022273589 0.11535055 0.0077805687
0.076126605 0.042346742 0.07542978 0.03241016 0.114644945 -0.06030641 0.11005838 -0.07547976
0.07784275 -0.008120181 0.01012916 -0.048181422 -0.09755741 0.0021581103 0.09071209 0.10642378
0.042476747 -0.087164395 0.054703016 0.006776606 -0.04476842 0.105714455 -0.12974359 0.10646524
-0.038206145 0.015866216 0.12951536 0.14331104 -0.052800186 0.13719389 -0.056239247 -0.07405982
0.077174984 -0.090952724 -0.009610018 -0.07402935 0.109843016 -0.02080948 -0.07854851 -0.010004843
-0.043542825 -0.087220386 0.07066366 -0.072463475 0.09370026 0.0354939 0.0728891 -0.050970133
0.089706674 0.07083702 0.034802362 0.12532485 0.054819115 0.06731066 0.10554833 -0.06072453
0.10966412 -0.040124796 0.093850024 -0.011995723 0.098754324 0.063656 0.11317087 0.11725987
0.016095193 0.0117975185 0.14568307 0.0016174105 -0.008462801 -0.054213695 0.04531553 0.044405878
-0.115359925 0.002190974 -0.042123906 0.06962819 0.12659992 0.016289145 -0.027312918 0.07919986
0.012654211 -0.08289832 0.104959615 0.06452252 -0.019438261 -0.1212981 0.07001897 -0.077702224
0.12385497 0.0048625036 0.06910336 0.12889084 -0.043899763 -0.14354986 0.06968624 0.04550552
0.09612708 0.016296908 -0.069228396 0.1072661 0.12153207 0.0033195196 -0.036706287 -0.102744386
0.044713054 -0.12885253 -0.14063329 -0.04047629 -0.011506852 -0.109320395 -0.045230865 -0.0371754
-0.015526833 -0.10685743 -0.088240035 0.0945808 0.07231287 -0.12534866 -0.046647277 0.09444996
0.013064075 0.100808926 0.12688956 0.10592962 0.037402373 -0.053157542 -0.13527963 0.016764613
0.06144675 0.10809586 -0.1321092 0.0098865405 -0.021502089 0.049302347 0.014024265 -0.080928855
0.11644893 0.13466793 0.0064990744 -0.07655778 0.06706864 -0.06820975 0.040158913 -0.027314238
0.00947415 0.011630321 -0.051509287 0.013904284 0.122404456 0.14745246 0.03213116 0.1229367
-0.07542183 0.01049684 0.104786664 -0.004141747 -0.07708302 0.1469103 -0.057309773 0.09056215
0.118237555 -0.10060921 -0.07169535 -0.027203545 -0.019118868 0.0856329 0.14628153 0.024469635
0.1490465 0.105186194 0.1218449 -0.024838997 0.089591354 0.03794824 0.13622679 -0.062264316
-0.087504685 0.07899281 0.09808334 -0.0023585802 0.09759086 0.088073544 0.012602679 -0.09513797
0.11849088 -0.001122787 0.06917863 -0.09365212 -0.07264496 -0.028043456 -0.056240432 -0.07042807
0.10580824 0.076557174 0.13072346 -0.030675767 -0.049112298 0.033096585 -0.02899317 0.03577948
00000000: 49a9 cdbd 5be4 783d 8659 19bd 1737 aa3d
00000010: 68e0 48bd e213 9c3b 6478 043d 3cc7 b83d
00000020: 6baf 163d 2315 823c 40ad c83d 1be3 d03d
00000030: 5c3a 46bd 8b73 b83d 69ed edbc 7e2f 2d3d
00000040: d49a c3bd 8a47 89bd e900 56bd c585 223d
00000050: 393e 4cbd c75e 993d 8061 aebd 625d 9f3c
00000060: 6562 ef3d 043f 9fbd 191e b63d 3369 a1bd
00000070: 2f08 cdbc 8ee8 97bc 02d6 f43d 5f0c 80bc
00000080: d089 143e 847c c7bc 960c d63b 4b6b fc3d
00000090: 1919 dabc 1fce 063d 287e 0f3e 4dde 463c
000000a0: f50c 4cbd 1580 19bd 9f77 64bd b30a c0bc
000000b0: 0a79 a4bb 4198 363d e44e 8b3d 385f 913b
000000c0: 21c4 593d d39c dc3d 5e2f b1bc 7ba8 e33a
000000d0: 9b32 d13d 1a77 b63c e93c ec3d 24f4 fe3b
000000e0: 44e8 9b3d c773 2d3d ee7a 9a3d 84c0 043d
000000f0: f8ca ea3d db03 77bd 4a66 e13d 2295 9abd
00000100: 056c 9f3d 820a 05bc c7f4 253c e259 45bd
00000110: 2ecc c7bd 156f 0d3b 43c7 b93d b6f4 d93d
00000120: 19fc 2d3d 3f83 b2bd 4510 603d 4b0e de3b
00000130: 175f 37bd d280 d83d 81db 04be 730a da3d
00000140: 0c7e 1cbd def9 813c ad9f 043e 21c0 123e
00000150: 0245 58bd 8e7c 0c3e 205b 66bd adac 97bd
00000160: eb0d 9e3d 6c45 babd 5673 1dbc b39c 97bd
00000170: 60f5 e03d a578 aabc 0bde a0bd 5aeb 23bc
00000180: f659 32bd 9aa0 b2bd 1cb8 903d bb67 94bd
00000190: ece5 bf3d 0d62 113d e146 953d 0fc6 50bd
000001a0: 22b8 b73d 0013 913d ec8c 0e3d 2855 003e
000001b0: 028a 603d 2cda 893d b929 d83d 49ba 78bd
000001c0: 9597 e03d e659 24bd 7134 c03d b589 44bc
000001d0: b53f ca3d 145e 823d 21c6 e73d f125 f03d
000001e0: 11da 833c 614a 413c f12d 153e 4aff d33a
000001f0: 8fa7 0abc 2e0f 5ebd c79c 393d f0e2 353d
00000200: d341 ecbd 7296 0f3b 1e8a 2cbd 3999 8e3d
00000210: 69a3 013e d070 853c 57bf dfbc 8933 a23d
00000220: 9c53 4f3c 98c6 a9bd 11f5 d63d 6224 843d
00000230: fd3c 9fbc 236b f8bd 1b66 8f3d 5822 9fbd
00000240: ada7 fd3d a355 9f3b 1086 8d3d f6fb 033e
00000250: 3dd0 33bd bcfe 12be a9b7 8e3d ff63 3a3d
00000260: 46de c43d 1881 853c 9ec7 8dbd 54ae db3d
00000270: cee5 f83d 4c8c 593b 5559 16bd a66b d2bd
00000280: 0925 373d ebf1 03be 2c02 10be 77ca 25bd
00000290: 3c87 3cbc 5fe3 dfbd 0044 39bd 3b45 18bd
000002a0: 4264 7ebc 11d8 dabd 31b7 b4bd 94b3 c13d
000002b0: c518 943d 665b 00be 3711 3fbd fb6e c13d
000002c0: b40a 563c e974 ce3d 56ef 013e a1f1 d83d
000002d0: 3b33 193d b9bb 59bd be86 0abe f155 893c
000002e0: 96af 7b3d 5d61 dd3d a247 07be 28fb 213c
000002f0: 2625 b0bc 42f1 493d 08c6 653c 07be a5bd
00000300: c77c ee3d 64e6 093e 30f6 d43b 53ca 9cbd
00000310: 485b 893d 8eb1 8bbd ac7d 243d 1cc2 dfbc
00000320: 7739 1b3c 1a8d 3e3c 67fb 52bd cbce 633c
00000330: 30af fa3d c7fd 163e f79b 033d 3dc6 fb3d
00000340: c376 9abd f0fa 2b3c 649a d63d 7eb7 87bb
00000350: b4dd 9dbd a76f 163e a7bd 6abd a678 b93d
00000360: 8826 f23d 340c cebd 03d5 92bd f8d9 debc
00000370: 2c9f 9cbc 4d60 af3d d3ca 153e 8b74 c83c
00000380: a59f 183e dc6b d73d d289 f93d 277b cbbc
00000390: ac7b b73d 9d6f 1b3d 097f 0b3e de08 7fbd
000003a0: a835 b3bd fbc6 a13d ebdf c83d 6992 1abb
000003b0: b8dd c73d e75f b43d 787b 4e3c b2d7 c2bd
000003c0: 59ab f23d 7b2a 93ba 87ad 8d3d afcc bfbd
000003d0: e1c6 94bd 64bb e5bc 5e5c 66bd 983c 90bd
000003e0: feb1 d83d 02ca 9c3d 5fdc 053e bf4b fbbc
000003f0: fa29 49bd 4990 073d 1683 edbc 818d 123d

lstm.weight_hh_l0 f4 [256, 64]
-0.026710043 -0.106791124 0.09427524 0.076055855 0.11237053 -0.079749666 0.054501753 -0.0031269828
-0.04821961 -0.053763427 0.10805919 0.11983939 0.088468455 0.00565859 0.016152406 -0.04304951
-0.057944767 -0.0970886 -0.02511728 0.040836062 -0.10768938 0.06382016 0.13654923 -0.05075621
0.0023958527 0.09614137 0.050307333 -0.073735006 0.078551516 -0.068639494 -0.068597 0.086283855
-0.060813967 -0.0027021556 -0.04782226 -0.018949548 -0.128653 -0.05524844 -0.014956183 0.039569736
0.009999518 0.11974767 0.033794858 0.08310091 0.09277554 -0.101932235 -0.024730654 0.090751044
-0.0036705823 -0.077127695 0.0686893 0.026781568 0.13118029 -0.09601727 -0.034091614 -0.0379393
0.11156416 -0.015726931 0.0035817546 0.018694788 -0.118109316 0.12981689 0.11624569 -0.10239
0.0992488 -0.05555834 0.001503293 -0.018663362 -0.017305648 0.09665504 -0.121433966 0.0976352
0.0077094007 -0.042416688 -0.06805508 0.07678763 0.015828442 -0.12465428 0.053522505 0.04390765
0.017990395 0.04294132 -0.027147317 -0.0027340252 0.08207709 0.07982209 0.07741022 0.09852945
0.060498584 -0.06660262 -0.06690779 -0.0928905 0.06235685 -0.067741334 0.116331264 -0.06261302
-0.018221973 -0.072939925 0.0237435 -0.12723868 0.049920402 -0.038354035 -0.066471644 0.0673727
0.069542065 -0.024907522 -0.08404484 -0.03730153 0.05504948 -0.12319364 0.08585689 -0.09244031
-0.113161325 -0.03987005 0.09028182 0.034468286 0.101803534 -0.10716762 -0.045184597 0.033368025
-0.005755529 -0.0031373743 -0.03762144 -0.103959486 -0.011483685 -0.05871933 0.10003877 -0.040072408
-0.13881025 -0.025601547 -0.070673876 -0.07462627 0.09318951 0.11316732 0.0601603 -0.09997421
0.09388624 -0.05911756 0.10609027 -0.04316365 -0.09782069 0.0015384965 -0.10495812 0.07560834
0.14082173 -0.114234455 0.07922866 -0.04251042 -0.10860674 0.06121663 -0.0074018813 -0.10211518
0.09645783 0.04507314 0.019839464 0.13287114 -0.061772164 0.10308377 -0.051967844 0.042945527
-0.053713683 0.013034927 0.09597995 -0.07444571 -0.0350536 0.09741617 -0.14049089 -0.086363815
0.00871334 0.08893087 -0.079844 -0.0039102477 0.018475173 0.019797824 -0.1217658 0.069445
0.02551903 -0.056164186 -0.016298145 -0.07885171 0.11011208 0.018996716 -0.020147927 -0.011880769
-0.091584966 -0.029401137 -0.051413335 -0.095018454 -0.038284343 -0.040490832 0.04385759 -0.07426417
-0.08914609 -0.07369352 -0.118985675 0.015046756 0.0021835547 0.0053176438 -0.106274195 -0.04734219
0.02297464 0.07526591 0.029641554 -0.016974626 0.07460913 -0.137117 0.07881958 -0.102675065
0.08097599 -0.11377908 0.08309719 0.01457522 0.00746846 -0.13534054 0.10840677 0.08840832
0.11026404 -0.025241688 -0.08931107 0.01819689 -0.016283205 0.12046237 0.019882806 -0.086885504
-0.07670644 -0.09790818 -0.10118309 -0.01770959 0.07367355 -0.009590723 -0.04229569 0.1289352
-0.12173591 0.11874262 -0.06790742 0.011133331 0.023555132 -0.08755563 0.09550207 -0.015167046
-0.08697588 0.036333818 -0.03906917 0.017195849 -0.008994119 0.093756855 -0.06882021 0.00838946
0.08316757 -0.042183697 -0.10279892 -0.07398868 0.0022094462 0.025260104 0.106027 0.011380738
00000000: 05cf dabc 4eb5 dabd 6113 c13d 2cc3 9b3d
00000010: 8522 e63d cb53 a3bd 3b3d 5f3d 11ee 4cbb
00000020: ed81 45bd 0a37 5cbd 234e dd3d 5b6e f53d
00000030: f32e b53d b16b b93b 0d52 843c af54 30bd
00000040: 7e57 6dbd 63d6 c6bd c1c2 cdbc b743 273d
00000050: 408c dcbd 25b4 823d 90d3 0b3e bee5 4fbd
00000060: bd03 1d3b c4e5 c43d 100f 4e3d 6102 97bd
00000070: 9edf a03d dd92 8cbd 957c 8cbd 97b5 b03d
00000080: 1118 79bd a616 31bb 46e1 43bd 153c 9bbc
00000090: 9dbd 03be 304c 62bd c70a 75bc e013 223d
000000a0: 05d5 233c 443e f53d 7a6c 0a3d cf30 aa3d
000000b0: 1a01 be3d d9c1 d0bd f197 cabc afdb b93d
000000c0: 278e 70bb 20f5 9dbd faac 8c3d 0565 db3c
000000d0: 2054 063e b4a4 c4bd a6a3 0bbd 3d66 1bbd
000000e0: c07b e43d c4d5 80bc dfbb 6a3b d025 993c
000000f0: 4ce3 f1bd b8ee 043e 3812 ee3d d9b1 d1bd
00000100: f442 cb3d 2491 63bd 250a c53a e8e3 98bc
00000110: 93c4 8dbc 14f3 c53d 5fb2 f8bd f7f4 c73d
00000120: 249f fc3b 1fbd 2dbd 7660 8bbd d542 9d3d
00000130: a6aa 813c be4a ffbd 6a3a 5b3d 82d8 333d
00000140: 9860 933c 3de3 2f3d 0d64 debc 552d 33bb
00000150: 0918 a83d c479 a33d 4089 9e3d cfc9 c93d
00000160: 5dcd 773d f466 88bd f406 89bd 603d bebd
00000170: e569 7f3d f8bb 8abd 163f ee3d 413b 80bd
00000180: 3f46 95bc 8761 95bd ba81 c23c db4a 02be
00000190: 5679 4c3d 1f19 1dbd 4922 88bd b3fa 893d
000001a0: 126c 8e3d dc0a ccbc b31f acbd 7dc9 18bd
000001b0: 907b 613d f24c fcbd bdd5 af3d 5851 bdbd
000001c0: 20c1 e7bd c74e 23bd ade5 b83d 9e2e 0d3d
000001d0: 5f7e d03d b27a dbbd 7c13 39bd e9ac 083d
000001e0: e098 bcbb 689c 4dbb f018 1abd b6e8 d4bd
000001f0: 1126 3cbc ae83 70bd 20e1 cc3d f722 24bd
00000200: 4624 0ebe 56ba d1bc 77bd 90bd a8d5 98bd
00000210: 24da be3d 45c4 e73d a66a 763d 47bf ccbd
00000220: 6e47 c03d 4125 72bd db45 d93d 5ecc 30bd
00000230: 3756 c8bd 60a7 c93a 48f4 d6bd 8cd8 9a3d
00000240: 9233 103e c1f3 e9bd a342 a23d 681f 2ebd
00000250: 366d debd 4abe 7a3d 7b8b f2bb c321 d1bd
00000260: af8b c53d 9d9e 383d 5f86 a23c 5f0f 083e
00000270: cf04 7dbd 951d d33d 3cdc 54bd a6e7 2f3d
00000280: e102 5cbd 7290 553c 2391 c43d fe76 98bd
00000290: 5d94 0fbd 2182 c73d d8dc 0fbe 83df b0bd
000002a0: 66c2 0e3c 6321 b63d 4085 a3bd 8921 80bb
000002b0: 3f59 973c 0c2f a23c 5960 f9bd 2e39 8e3d
000002c0: 490d d13c 6b0c 66bd b083 85bc 017d a1bd
000002d0: 7182 e13d 009f 9b3c 440d a5bc 8fa7 42bc
000002e0: e690 bbbd a7da f0bc ca96 52bd 0999 c2bd
000002f0: 0bd0 1cbd b7d9 25bd 04a4 333d d017 98bd
00000300: 3a92 b6bd a1ec 96bd c3ae f3bd ab86 763c
00000310: f819 0f3b a13f ae3b 49a6 d9bd e2e9 41bd
00000320: 5035 bc3c 0325 9a3d d8d2 f23c 5f0e 8bbc
00000330: accc 983d 6668 0cbe 296c a13d 4e47 d2bd
00000340: bdd6 a53d 0205 e9bd dc2e aa3d e7cc 6e3c
00000350: fcb9 f43b b696 0abe 5e04 de3d 6c0f b53d
00000360: 1dd2 e13d a8c7 cebc b9e8 b6bd a511 953c
00000370: 5b64 85bc fab4 f63d 44e1 a23c 07f1 b1bd
00000380: 4418 9dbd 1584 c8bd 1439 cfbd b413 91bc
00000390: 28e2 963d 6822 1dbc 3f3e 2dbd 9707 043e
000003a0: ad50 f9bd 552f f33d 0c13 8bbd 9368 363c
000003b0: b1f6 c03c 5e50 b3bd 9796 c33d 347f 78bc
000003c0: 6920 b2bd c5d2 143d fe06 20bd 4fde 8c3c
000003d0: 125c 13bc 9803 c03d 9cf1 8cbd f273 093c
000003e0: c253 aa3d d0c8 2cbd 3d88 d2bd 6187 97bd
000003f0: 5bcc 103b 47ee ce3c af24 d93d 4676 3a3c

lstm.bias_ih_l0 f4 [256]
0.034482993 0.03724736 -0.07169292 -0.061774913 0.015353471 -0.03564143 -0.058621854 0.07188543
0.024106497 0.09068132 0.040400915 0.035041694 0.052330792 0.049269725 0.01827584 0.11563745
-0.024161244 0.017683772 0.05551155 -0.028628254 0.11841723 -0.0063822037 -0.022423144 -0.02838419
-0.044252917 0.0770071 0.030025776 0.0527757 -0.08925816 0.089918315 -0.019763788 -0.048251264
0.09298913 0.09399726 -0.038622208 0.021250857 -0.002047117 -0.013271272 -0.100529194 0.07393106
0.09247962 -0.001119002 0.028304577 -0.08272986 -0.077775165 -0.024374511 -0.11628414 0.091996774
0.0053438274 0.0034094837 0.0056837043 -0.012044888 0.11786446 -0.06680141 0.11852604 -0.062436786
0.11692995 0.0057588313 0.054668274 0.051545676 0.022722837 -0.039031107 -0.08611283 0.0040968084
0.08833601 -0.011871275 -0.096039265 0.036482494 -0.0012555906 0.06503458 -0.087051615 7.706994e-05
-0.056348823 -0.05501371 -0.08379532 -0.05106848 -0.05834362 0.01689427 0.08342138 0.054004963
0.022593105 -0.045708966 0.02516375 0.10732289 0.061283648 -0.032391887 0.015475508 0.0901465
0.049610265 0.015712138 -0.0865193 -0.045823704 -0.022886507 0.080089405 0.008503636 0.0032501186
-0.06622313 0.06731316 0.01616278 -0.07035433 -0.089675434 0.018476672 0.05642506 0.051094323
0.11660448 -0.10042801 0.03945382 -0.037699834 0.07128716 -0.08061131 -0.019030977 0.055968065
-0.040251333 0.123451345 0.08498221 -0.09191215 -0.03667746 0.02614748 0.01886981 0.028344536
0.13551779 0.11646625 0.07942538 -0.021986965 -0.011451163 -0.0903392 -0.063669324 0.047248647
0.038528282 -0.104931675 -0.04013274 -0.047336124 -0.030171728 0.10273415 -0.041542336 -0.019419989
-0.09945289 0.04124138 0.060392924 -0.11892773 -0.024060149 -0.095252186 -0.0615085 -0.053379092
0.03297561 -0.038002964 -0.11784451 0.0033616768 0.057811577 -0.11425597 0.11506061 -0.05262982
0.050541177 -0.03902165 -0.12039768 0.00077866734 0.06706838 0.10949898 0.108874954 -0.007570265
0.022946814 -0.08535971 -0.09213598 -0.12454523 -0.114574656 0.024546161 -0.12178246 0.07089084
-0.09992602 0.098421045 0.030381918 -0.11771027 -0.010128823 0.008587146 -0.04761067 0.017956438
-0.1255555 -0.049744874 -0.03180265 -0.10837918 0.0018264622 -0.038397837 0.01258763 0.11026425
0.01564031 0.07566379 0.033820566 -0.038810574 -0.09639466 -0.049608283 0.04712309 -0.04313959
0.0046908576 0.10143945 0.070608616 0.011697091 -0.020810807 0.05773242 0.05377829 -0.03765505
-0.025274865 0.12937716 -0.009983158 -0.057020966 0.036448773 -0.060244028 0.06316027 -0.0667415
0.11150303 0.08458675 0.09555153 0.044152424 0.10603982 -0.10208522 -0.031783998 0.077748016
-0.08141778 -0.023916546 -0.06792318 -0.053280678 0.12440238 -0.01299398 -0.0060827597 0.12051064
0.095836446 0.06622617 -0.0416302 0.13125145 -0.010065553 0.09891657 -0.09866415 -0.09325396
-0.012619256 0.016053759 0.05992548 -0.068659954 0.11285293 -0.103312485 0.03857871 -0.0146559235
-0.020087235 0.05168605 -0.07392569 0.13184302 0.047476865 0.020883938 0.009773661 0.035266075
0.11214261 0.04087507 -0.052194245 -0.0065881903 -0.054455314 0.0971629 -0.03738999 0.06860169
00000000: 0a3e 0d3d b090 183d bdd3 92bd b107 7dbd
00000010: 208d 7b3c c0fc 11bd 781d 70bd ab38 933d
00000020: fd7a c53c 21b7 b93d 6e7b 253d e187 0f3d
00000030: d058 563d 0dcf 493d 37b7 953c 54d3 ec3d
00000040: cded c5bc 8fdd 903c 1460 633d cd85 eabc
00000050: bc84 f23d ce21 d1bb beb0 b7bc f685 e8bc
00000060: 8c42 35bd e6b5 9d3d 9ef8 f53c 552b 583d
00000070: fbcc b6bd 1827 b83d abe7 a1bc 1ea3 45bd
00000080: 1671 be3d a381 c03d 5232 1ebd 4716 ae3c
00000090: ed28 06bb c06f 59bc 40e2 cdbd 2b69 973d
000000a0: f465 bd3d 7aab 92ba 00df e73c 466e a9bd
000000b0: 9648 9fbd 0ead c7bc 6126 eebd ce68 bc3d
000000c0: 461b af3b a571 5f3b 5e3e ba3b ec57 45bc
000000d0: ec62 f13d 2dcf 88bd c8bd f23d b7bd 7fbd
000000e0: f878 ef3d 94b4 bc3b d7eb 5f3d 8f21 533d
000000f0: 3e25 ba3c 15df 1fbd ec5b b0bd 853e 863b
00000100: 83e9 b43d bc7f 42bc 3cb0 c4bd ab6e 153d
00000110: a192 a4ba da30 853d 1e48 b2bd 9ca0 a138
00000120: 06ce 66bd 0e56 61bd e19c abbd 2f2d 51bd
00000130: b8f9 6ebd da65 8a3c d4d8 aa3d 4f34 5d3d
00000140: 2d15 b93c 5339 3bbd 3524 ce3c 1acc db3d
00000150: 9004 7b3d 5bad 04bd fc8c 7d3c ba9e b83d
00000160: 2234 4b3d beb6 803c 0831 b1bd a3b1 3bbd
00000170: 7c7c bbbc ea05 a43d d652 0b3c f1ff 543b
00000180: fe9f 87bd 7bdb 893d ce67 843c ee15 90bd
00000190: c1a7 b7bd 645c 973c f71d 673d 4848 513d
000001a0: 54ce ee3d 33ad cdbd 549a 213d 246b 1abd
000001b0: 01ff 913d 8b17 a5bd dae6 9bbc c53e 653d
000001c0: 95de 24bd 0fd4 fc3d 270b ae3d 703c bcbd
000001d0: 1b3b 16bd 3d33 d63c dc94 9a3c cd32 e83c
000001e0: 2dc5 0a3e db85 ee3d c6a9 a23d 021e b4bc
000001f0: a99d 3bbc c203 b9bd 1065 82bd cc87 413d
00000200: d5cf 1d3d 6be6 d6bd 3a62 24bd 86e3 41bd
00000210: b32a f7bc 4866 d23d 4c28 2abd ab16 9fbc
00000220: f5ad cbbd b9ec 283d 925e 773d 6290 f3bd
00000230: ca19 c5bc 9413 c3bd 56f0 7bbd 09a4 5abd
00000240: 6f11 073d ffa8 1bbd 7658 f1bd 944f 5c3b
00000250: d5cb 6c3d 09ff e9bd e6a4 eb3d 5e92 57bd
00000260: 4404 4f3d 2ad5 1fbd 0f93 f6bd 7b1f 4c3a
00000270: 265b 893d 0041 e03d d5f9 de3d fc0f f8bb
00000280: f5fa bb3c 12d1 aebd cab1 bcbd 9211 ffbd
00000290: 1ea6 eabd 0815 c93c 1569 f9bd 372f 913d
000002a0: 03a6 ccbd f990 c93d 80e3 f83c 1512 f1bd
000002b0: 5df3 25bc 1ab1 0c3c 6803 43bd 6119 933c
000002c0: 9f91 00be 48c1 4bbd 7f43 02bd e7f5 ddbd
000002d0: e765 ef3a 0d47 1dbd 593c 4e3c 39d2 e13d
000002e0: 1b20 803c 9ef5 9a3d 6f87 0a3d d6f7 1ebd
000002f0: 906a c5bd 0e32 4bbd 2404 413d 24b3 30bd
00000300: c4b5 993b 7dbf cf3d 409b 903d 28a5 3f3c
00000310: 6d7b aabc d478 6c3d a046 5c3d 2f3c 1abd
00000320: 3c0d cfbc 727b 043e 6690 23bc d18e 69bd
00000330: 4f4b 153d 71c2 76bd 2c5a 813d c4af 88bd
00000340: b35b e43d d13b ad3d 85b0 c33d 2cd9 343d
00000350: 682b d93d 0e12 d1bd f02f 02bd 5a3a 9f3d
00000360: 5dbe a6bd a2ec c3bc 4f1b 8bbd d73c 5abd
00000370: adc6 fe3d b4e4 54bc e351 c7bb 48ce f63d
00000380: e645 c43d 96a1 873d 6e84 2abd c866 063e
00000390: fde9 24bc c594 ca3d 6e10 cabd effb bebd
000003a0: ffc0 4ebc 2c83 833c 6c74 753d 979d 8cbd
000003b0: 701f e73d 7f95 d3bd b604 1e3d 661f 70bc
000003c0: fc8d a4bc c0b4 533d 5a66 97bd db01 073e
000003d0: 1a77 423d cb14 ab3c b521 203c 2973 103d
000003e0: 06ab e53d 9e6c 273d a2c9 55bd bfe1 d7bb
000003f0: 890c 5fbd 58fd c63d 3f26 19bd 0b7f 8c3d

lstm.bias_hh_l0 f4 [256]
-0.023223951 -0.032463685 -0.05012106 -0.0018501553 -0.06765147 -0.06554267 0.03342756 -0.058515407
-0.06857876 -0.072605155 -0.043379467 0.042307805 0.019940058 0.10099578 -0.0032925091 0.11430881
0.08814333 -0.006359151 -0.07005092 -0.053385813 -0.01772904 0.028143186 -0.08972915 0.06417015
0.060643923 -0.017233545 0.009880569 -0.110112146 -0.0028969932 0.039035287 -0.018254153 -0.022942401
0.08917345 -0.03688078 -0.038626365 -0.01892863 -0.044170987 -0.10386792 0.028788354 -0.06966798
0.07745321 0.0030532938 0.106889814 0.10133479 0.009958181 -0.08370527 0.073648065 0.11333545
0.07065403 -0.09565706 -0.07582089 0.10486461 0.0051854537 -0.079677895 0.10261917 0.12853815
-0.07534347 -0.09524803 -0.054211013 -0.059660804 0.11580752 0.13709873 0.11612737 0.11265515
-0.057680108 -0.071696535 0.06843841 0.108923055 0.0052503324 0.053504582 0.09720233 -0.043289013
-0.11436964 0.007924089 0.06857239 -0.10082561 -0.11859291 -0.020959629 0.07152145 -0.049570967
-0.017245349 0.107561514 -0.07306054 -0.08357796 0.1272257 -0.055117436 0.101474956 -0.05283839
0.05104185 0.0875613 0.05880427 -0.1099289 0.02913025 0.021349084 0.08079721 0.06071035
0.09418513 -0.03630713 0.05425302 -0.06327447 0.08789013 0.006490608 -0.026549747 -0.056996178
-0.046908695 0.10097495 0.052191734 0.13807952 0.04754479 -0.06940885 0.12146216 0.011476864
-0.07077072 0.057614382 -0.057872854 0.07295219 0.021788016 -0.021850983 -0.026418572 0.12339319
-0.015530503 -0.09734352 -0.035025705 -0.039297197 -0.016222814 -0.09453999 0.07668903 0.007353467
-0.055446357 0.055309147 -0.090103716 0.059156783 -0.109153956 0.066547856 -0.09556372 0.1152103
-0.07767329 -0.07461011 0.012263598 -0.005829789 -0.047428086 -0.034921363 -0.060767233 0.06663601
0.035782646 -0.09576647 0.02241999 -0.024862487 -0.045098078 0.051049765 0.039716143 -0.10116282
0.09495219 0.04960689 -0.03637589 0.06956254 0.10592397 0.112863705 0.07046887 -0.1207885
0.014316004 0.020282738 0.030080635 0.065613985 -0.052713923 0.024270909 0.120091625 0.01906747
-0.11617131 0.12334102 0.0007011303 -0.009545243 0.114283755 0.111777805 -0.10442842 0.053081956
-0.015356273 0.019710489 0.035097614 -0.11538059 0.051395535 0.03791047 -0.034959383 -0.062010325
0.052543696 0.057552725 -0.008737023 -0.12563252 -0.096654125 0.014316112 -0.05319483 -0.013854689
0.124204256 0.024047116 -0.02295095 0.10868954 -0.0311569 0.027182402 -0.022283107 -0.08968952
0.12408326 -0.09669055 0.0019028974 -0.022913223 -0.0039011552 0.07936151 0.10195585 0.13560893
-0.017984305 0.05766351 0.11503515 0.0042119077 0.11068504 0.13219893 -0.043714516 0.057819292
0.0040397705 0.007947105 -0.075133875 0.0042924047 0.06650854 -0.0062264926 -0.050727114 -0.04682241
-0.017091503 -0.049386222 -0.051047403 0.06734625 0.07405989 0.108516484 0.06419802 0.13425669
0.04963908 0.01652203 0.061816107 0.048906095 0.10112244 0.10327297 0.08412544 0.1065186
0.12737495 -0.040837213 -0.009750564 -0.108285815 0.027515318 -0.026399057 0.08094636 0.13416187
-0.027276007 0.008344916 0.07711261 0.030611532 -0.016610837 0.011344201 -0.021613508 0.06603814
00000000: 2840 bebc a4f8 04bd be4b 4dbd e980 f2ba
00000010: db8c 8abd 3c3b 86bd 56eb 083d daad 6fbd
00000020: 0573 8cbd 03b2 94bd abae 31bd f34a 2d3d
00000030: 5559 a33c e0d6 ce3d 23c7 57bb bd1a ea3d
00000040: 7d84 b43d 6d60 d0bb db76 8fbd 15ab 5abd
00000050: 7e3c 91bc 8a8c e63c ebc3 b7bd a46b 833d
00000060: c365 783d 5d2d 8dbc 1ce2 213c 7a82 e1bd
00000070: 7bdb 3dbb 77e3 1f3d bc89 95bc b4f1 bbbc
00000080: 92a0 b63d 4d10 17bd ae36 1ebd 3710 9bbc
00000090: a3ec 34bd b4b8 d4bd 8ed5 eb3c 16ae 8ebd
000000a0: ca9f 9e3d c519 483b 0ce9 da3d 9d88 cf3d
000000b0: a327 233c ab6d abbd ccd4 963d 6b1c e83d
000000c0: 0fb3 903d d9e7 c3bd fc47 9bbd 42c3 d63d
000000d0: bdea a93b 2a2e a3bd 002a d23d 819f 033e
000000e0: ad4d 9abd 6611 c3bd 5e0c 5ebd e35e 74bd
000000f0: 7e2c ed3d 9c63 0c3e 30d4 ed3d beb7 e63d
00000100: fa41 6cbd a2d5 92bd 7029 8c3d 0d13 df3d
00000110: fb0a ac3b 9f27 5b3d 0412 c73d d24f 31bd
00000120: a13a eabd 0ad4 013c ae6f 8c3d a87d cebd
00000130: d7e0 f2bd 87b3 abbc d779 923d ed0a 4bbd
00000140: 1e46 8dbc 3649 dc3d c4a0 95bd ec2a abbd
00000150: 7447 023e d2c2 61bd 1ad2 cf3d 116d 58bd
00000160: 4211 513d 5753 b33d bfdc 703d 6722 e1bd
00000170: 90a2 ee3c 46e4 ae3c 0279 a53d 6aab 783d
00000180: 22e4 c03d c9b6 14bd 6a38 5e3d 0c96 81bd
00000190: beff b33d 2baf d43b db7e d9bc d374 69bd
000001a0: 5523 40bd f4cb ce3d 00c7 553d b864 0d3e
000001b0: 53be 423d 3a26 8ebd 27c1 f83d 7509 3c3c
000001c0: 3df0 90bd 0ffd 6b3d 160c 6dbd f567 953d
000001d0: c87c b23c d500 b3bc c36b d8bc 92b5 fc3d
000001e0: a773 7ebc 0a5c c7bd 1d77 0fbd 19f6 20bd
000001f0: b5e5 84bc 2f9e c1bd 230f 9d3d 5af5 f03b
00000200: b81b 63bd d88b 623d 4c88 b8bd 624e 723d
00000210: 1c8c dfbd 3e4a 883d e9b6 c3bd 61f3 eb3d
00000220: 2d13 9fbd 2fcd 98bd 42ed 483c d107 bfbb
00000230: f443 42bd b409 0fbd 10e7 78bd 7678 883d
00000240: d390 123d 3621 c4bd 20aa b73c 6aac cbbc
00000250: c3b8 38bd 8f19 513d 65ad 223d 742e cfbd
00000260: 4b76 c23d 9830 4b3d e3fe 14bd ce76 8e3d
00000270: abee d83d 1625 e73d fc51 903d f65f f7bd
00000280: ac8d 6a3c fc27 a63c aa6b f63c a060 863d
00000290: 8eea 57bd c9d3 c63c 99f2 f53d 6233 9c3c
000002a0: 39eb edbd 379a fc3d 0fcc 373a a763 1cbc
000002b0: 9a0d ea3d c3eb e43d 91de d5bd 776c 593d
000002c0: e198 7bbc e477 a13c 84c2 0f3d a94c ecbd
000002d0: 2084 523d 0248 1b3d 9231 0fbd 8afe 7dbd
000002e0: 0f38 573d 68bc 6b3d bb25 0fbc d0a5 00be
000002f0: 99f2 c5bd 208e 6a3c d2e2 59bd c7fe 62bc
00000300: cd5e fe3d 75fe c43c a103 bcbc 9f98 de3d
00000310: c13c ffbc a1ad de3c 108b b6bc 24af b7bd
00000320: 5d1f fe3d b205 c6bd a46a f93a 83b4 bbbc
00000330: 86aa 7fbb 4a88 a23d 3bce d03d 11dd 0a3e
00000340: d253 93bc 9330 6c3d 8c97 eb3d 0b04 8a3b
00000350: d7ae e23d 285f 073e fe0d 33bd ecd3 6c3d
00000360: 0d60 843b 9334 023c cadf 99bd 4da7 8c3b
00000370: a135 883d 9b07 ccbb 3cc7 4fbd dbc8 3fbd
00000380: 7b03 8cbc 3549 4abd 1517 51bd d5ec 893d
00000390: b6ac 973d e43d de3d 407a 833d 967a 093e
000003a0: 5952 4b3d 3559 873c e332 7d3d c251 483d
000003b0: 4819 cf3d c780 d33d f549 ac3d 6c26 da3d
000003c0: 946e 023e ec44 27bd d4c0 1fbc f4c4 ddbd
000003d0: ce67 e13c d642 d8bc 35c7 a53d bb61 093e
000003e0: ef71 dfbc 1db9 083c 37ed 9d3d 09c5 fa3c
000003f0: 7313 88bc 07dd 393c d00e b1bc 013f 873d

lstm.weight_ih_l1 f4 [256, 64]
-0.008697487 0.060972996 0.0076441625 0.07018735 0.08817638 0.037034467 -0.062450368 0.026593605
-0.082433574 -0.0078467345 0.10045669 -0.07764973 0.09602828 0.08145231 0.045639213 -0.009044191
-0.03170506 0.0039733313 0.004884321 0.021219054 0.039460354 0.10373431 0.00086154696 0.011464132
0.056831386 0.068406895 0.028517218 -0.0072059412 -0.10133909 -0.11197807 0.0071589197 0.06853684
0.024027508 -0.12385663 0.047524225 -0.072054334 -0.11580248 0.052063372 -0.007880622 -0.06304035
0.02453354 -0.07911646 -0.0012871403 -0.0938699 0.122290105 0.037954994 -0.00071365206 -0.018081844
-0.019500325 -0.0030761037 -0.054679554 0.079111606 0.016333535 0.010938027 0.016107075 0.0010559884
0.03368952 0.051788375 -0.016136644 -0.10000796 0.06749175 -0.01909666 -0.02290499 -0.103130594
-0.029332489 -0.13453235 -0.019306496 -0.094187014 -0.07747291 -0.008437617 -0.03041434 0.07049107
0.0826577 -0.019499809 0.07970329 -0.004544941 -0.086095594 -0.026060374 -0.076444335 -0.0416392
-0.0035790382 -0.11497248 0.08721953 -0.07735836 -0.0028885354 0.04104457 -0.027513947 -0.07404577
0.011906925 0.0060529364 -0.07513812 -0.095971525 0.14005095 0.111948706 0.10790209 0.005358069
-0.04439431 0.04920741 0.04942347 -0.016342409 0.096691675 -0.079661846 -0.13581455 0.036268592
-0.08422734 -0.09152089 0.091001414 -0.038483035 0.11785051 -0.023958119 0.0057722796 -0.082226105
-0.03131436 -0.10858766 -0.040575117 -0.11070987 -0.071131565 -0.045938563 0.08287839 0.08290745
-0.04743242 0.03829458 0.04610477 -0.030489381 -0.0038144588 -0.08833384 0.09111218 -0.10357393
-0.077374175 -0.10175606 -0.018022424 0.055095013 0.038872294 0.025955811 -0.04061127 0.02263093
-0.05210245 0.038625546 -0.11633235 -0.042770356 -0.016018787 0.06202431 0.055454563 -0.08048412
0.085676566 -0.08871028 -0.028023379 -0.1152385 0.08724883 0.08022397 0.06641836 0.08809231
-0.026847025 -0.10304127 -0.046482924 -0.03644679 -0.10521571 -0.036393803 0.101613685 0.05011645
0.08524276 0.047927245 0.07796655 0.07513131 0.07056076 -0.026307076 0.037726328 -0.0723851
-0.11737373 -0.012754473 -0.03250755 0.007855467 0.0556636 0.07319244 -0.0027283356 0.03905664
0.109512985 0.0106408335 0.005367646 0.037080087 -0.038277652 -0.035747807 0.017104764 -0.03152111
-0.0059909555 0.01823934 0.074562296 -0.08998475 -0.024034495 0.009132756 0.09612438 -0.062216476
-0.017309394 -0.07119965 0.07111739 0.020049933 0.11868481 -0.113940395 -0.040439665 0.11468155
-0.022048779 -0.11413281 0.03732144 0.09605928 -0.031574633 -0.019494448 0.0680988 0.0010410819
-0.105146594 -0.018797247 0.0018238167 -0.05386714 0.033645123 0.0273898 -0.09207472 -0.0005335181
-0.012693876 0.118464716 0.112861246 0.0078792535 -0.03911093 0.0746799 -0.11134068 0.030865284
-0.03677614 -0.06395005 -0.05017067 0.10277014 -0.03868715 0.07310944 0.06953534 0.095774755
0.03579858 0.01869698 0.057687342 -0.0011629176 -0.001455842 -0.085683055 -0.118541874 -0.09747131
-0.06422001 -0.11025713 0.06960374 -0.034348596 0.11318222 0.068787605 -0.13510749 -0.030611863
-0.098754756 0.12724319 -0.008382708 -0.06986142 0.103993215 -0.052202474 0.12247896 -0.05459812
00000000: e87f 0ebc d2be 793d e27b fa3b 63be 8f3d
00000010: d195 b43d 74b1 173d f5cb 7fbd d5da d93c
00000020: efd2 a8bd 978f 00bc 3dbc cd3d d206 9fbd
00000030: 7aaa c43d 78d0 a63d 2ff0 3a3d 162e 14bc
00000040: 2add 01bd b832 823b a70c a03b 95d3 ad3c
00000050: 2ea1 213d a772 d43d 70d9 613a 0ed4 3b3c
00000060: 07c8 683d ea18 8c3d f19c e93c d11f ecbb
00000070: de8a cfbd c254 e5bd 5f95 ea3b 0b5d 8c3d
00000080: 56d5 c43c 8ba8 fdbd c3a8 423d 3991 93bd
00000090: da29 edbd 6740 553d b91d 01bc 4d1b 81bd
000000a0: 90fa c83c d007 a2bd 43b5 a8ba dd3e c0bd
000000b0: 3c73 fa3d b276 1b3d 6114 3bba 6020 94bc
000000c0: 25bf 9fbc 7598 49bb abf7 5fbd 4405 a23d
000000d0: e8cd 853c 6935 333c fcf2 833c 1769 8a3a
000000e0: 06fe 093d 0c20 543d ff30 84bc f9d0 ccbd
000000f0: 1d39 8a3d 9970 9cbc 3fa3 bbbc 2236 d3bd
00000100: b04a f0bc d9c2 09be a828 9ebc 1fe5 c0bd
00000110: 1eaa 9ebd ee3d 0abc 7e27 f9bc 9f5d 903d
00000120: 7148 a93d 10be 9fbc 7a3b a33d baed 94bb
00000130: e352 b0bd 917c d5bc d98e 9cbd de8d 2abd
00000140: 4c8e 6abb b176 ebbd 27a0 b23d 0f6e 9ebd
00000150: 954d 3dbb 5a1e 283d ee64 e1bc 4fa5 97bd
00000160: 4315 433c b657 c63b 04e2 99bd b88c c4bd
00000170: 8469 0f3e 5d45 e53d c5fb dc3d be92 af3b
00000180: cfd6 35bd b68d 493d 4470 4a3d 84e0 85bc
00000190: 4906 c63d c025 a3bd f812 0bbe 608e 143d
000001a0: 627f acbd 4e6f bbbd f35e ba3d 63a0 1dbd
000001b0: 9c5b f13d d143 c4bc 6425 bd3b 2966 a8bd
000001c0: 7d43 00bd 3563 debd 1832 26bd dbbb e2bd
000001d0: 6dad 91bd 132a 3cbd 25bc a93d 62cb a93d
000001e0: 7f48 42bd c7da 1c3d 5bd8 3c3d dec4 f9bc
000001f0: 00fc 79bb 5fe8 b4bd 0699 ba3d 921e d4bd
00000200: 5a76 9ebd 7b65 d0bd c3a3 93bc 4fab 613d
00000210: 8e38 1f3d 48a1 d43c 0158 26bd 8064 b93c
00000220: 6169 55bd d235 1e3d a83f eebd f82f 2fbd
00000230: d539 83bc 340d 7e3d 5324 633d dcd4 a4bd
00000240: 3277 af3d bcad b5bd 4991 e5bc 2a02 ecbd
00000250: 84af b23d 774c a43d 5906 883d be69 b43d
00000260: 4bee dbbc 4d07 d3bd e164 3ebd 3b49 15bd
00000270: 567b d7bd ab11 15bd d61a d03d e846 4d3d
00000280: c293 ae3d 5c4f 443d edac 9f3d 72de 993d
00000290: 2982 903d f081 d7bc ec86 1a3d a43e 94bd
000002a0: a361 f0bd 23f8 50bc a326 05bd 37b4 003c
000002b0: 84ff 633d ebe5 953d e0cd 32bb dbf9 1f3d
000002c0: 5848 e03d e456 2e3c 14e3 af3b 4ae1 173d
000002d0: 07c9 1cbd 4b6c 12bd 4a1f 8c3c 481c 01bd
000002e0: c74f c4bb ab6a 953c 1eb4 983d ed49 b8bd
000002f0: fde3 c4bc 8ea1 153c dcdc c43d b4d6 7ebd
00000300: 6ecc 8dbc 1fd1 91bd ffa5 913d c23f a43c
00000310: 0611 f33d 9559 e9bd 10a4 25bd 29de ea3d
00000320: a49f b4bc 76be e9bd 5ede 183d baba c43d
00000330: 6754 01bd d2b2 9fbc 6277 8b3d e974 883a
00000340: 1957 d7bd affc 99bc 220d ef3a caa3 5cbd
00000350: 78cf 093d 9360 e03c ac91 bcbd cbdb 0bba
00000360: faf9 4fbc a19d f23d cc23 e73d fc17 013c
00000370: c832 20bd c7f1 983d 9506 e4bd 31d9 fc3c
00000380: 94a2 16bd 3ef8 82bd c37f 4dbd 2779 d23d
00000390: 6b76 1ebd 67ba 953d 8b68 8e3d 8e25 c43d
000003a0: 88a1 123d 692a 993c 9049 6c3d 0a6d 98ba
000003b0: f4d1 beba 997a afbd 15c6 f2bd 0a9f c7bd
000003c0: c885 83bd 7dce e1bd 688c 8e3d 1db1 0cbd
000003d0: 14cc e73d 84e0 8c3d 9e59 0abe bbc5 fabc
000003e0: ef3f cabd 0a4c 023e a057 09bc 8113 8fbd
000003f0: 65fa d43d 43d2 55bd 40d6 fa3d 47a2 5fbd

lstm.weight_hh_l1 f4 [256, 64]
0.023690548 -0.06757778 0.019651452 -0.03474724 -0.024234753 0.033177283 -0.022626624 0.0005372378
-0.028233828 0.04783163 0.08071035 -0.04929865 -0.048877332 0.043955516 0.108414754 0.05654326
0.035043143 -0.07896019 0.11083385 0.029685207 -0.027166966 -0.02253677 -0.079033 -0.042285994
0.026895707 -0.095809765 0.0019457516 -0.10231179 0.10740732 -0.0127213625 -0.109054215 -0.085476376
0.08207472 0.016005505 0.009642162 -0.018338319 -0.023797235 0.10268268 -0.09251808 0.009727082
-0.008530778 0.046311848 -0.06188707 0.07720683 -0.062452916 -0.045646124 -0.060054142 0.120569155
-0.098406665 0.07691685 -0.10968348 0.11024993 -0.014873128 -0.08393448 -0.11072285 -0.0026852454
-0.06890391 -0.08547895 -0.11667799 -0.023940995 0.061524298 -0.09416693 0.003186183 0.057532858
-0.03941803 -0.089672156 0.09731744 -0.023163265 -0.03446424 0.033298124 0.08732574 0.027277017
0.03209199 0.08309385 0.12060203 0.070473604 -0.056383744 0.0708243 -0.068245724 -0.08637228
-0.07230639 0.044210255 0.0044600586 -0.12361032 0.0878477 -0.01366546 -0.07953418 -0.012837829
-0.1270004 0.086798444 0.1357251 -0.051479116 -0.07546426 -0.12302099 -0.13169445 -0.08649848
-0.009504267 -0.07789596 0.1335584 0.08936614 -0.04765476 0.06785661 0.016951947 0.010659829
-0.049844604 0.114510246 0.1062879 0.03946893 -0.02833449 -0.073314324 -0.009908851 0.12546466
0.08672782 0.014410629 -0.06293943 -0.027116949 -0.0742418 0.031661995 -0.013005696 0.055167887
-0.10442238 0.0678732 -0.0005391402 0.08860654 -0.14044961 -0.0061512203 0.06579826 -0.10937101
-0.03126546 -0.005780363 -0.09746323 0.08781147 -0.020977832 0.023830522 -0.030519843 -0.09029065
-0.0016025427 -0.064444624 0.09765297 0.01793302 -0.12542439 -0.02126481 0.09902344 -0.010699079
-0.01070422 -0.027916234 0.051595412 -0.0007535278 0.042007305 -0.074039534 -0.02592381 -0.09801404
-0.06809891 0.028735185 0.07444595 -0.038331002 0.04194604 -0.030161057 -0.080517896 0.08070409
-0.0768992 -0.011760876 0.04713303 0.042035785 0.040726203 -0.01287442 0.010120509 -0.10693994
-0.109697424 -0.08950132 -0.07988501 0.028271995 -0.11574239 0.035619427 -0.07750051 -0.040607665
0.09653311 -0.10931999 0.107857846 0.06759005 -0.03803766 -0.045218397 -0.08436051 -0.07336825
-0.08536918 -0.080975376 -0.014485488 -0.084535 0.08352798 -0.043053426 -0.0076005 -0.026538754
-0.015227686 0.027785204 0.0887978 0.0704059 0.019991906 -0.04039648 -0.029677376 0.011013404
0.043235607 -0.084733665 -0.016587349 0.012026415 -0.109185725 -0.020257885 0.02036103 0.056164965
0.12757885 0.026331129 0.09708879 0.068953864 -0.07098178 0.050816443 0.10059459 -0.030438531
-0.07926347 0.10040001 0.04064959 0.015249812 -0.0015141685 0.07300884 0.045197267 0.06778698
0.03295838 0.10997826 0.09862628 -0.005790768 0.113459945 0.13283795 0.087895416 -0.002605593
0.054318417 -0.07502429 -0.100561276 0.13126534 0.12557739 -0.031223644 -0.019267466 -0.10504415
0.11541854 0.09592288 0.011905578 -0.06928338 -0.0142655 0.04657599 0.0045845816 -0.066870384
0.08881691 0.08672053 0.08172239 0.010805162 -0.0029644433 0.09610285 0.008744859 -0.13353436
00000000: ae12 c23c 3866 8abd 15fc a03c 1f53 0ebd
00000010: f687 c6bc e7e4 073d 785b b9bc 6bd5 0c3a
00000020: a14a e7bc 19eb 433d 784b a53d 62ed 49bd
00000030: 9933 48bd b30a 343d 8e08 de3d e899 673d
00000040: 6689 0f3d e1b5 a1bd dcfc e23d 642e f33c
00000050: 428d debc 089f b8bc 0edc a1bd 1434 2dbd
00000060: 6354 dc3c e937 c4bd 9708 ff3a d888 d1bd
00000070: 5ef8 db3d 436d 50bc d157 dfbd 3d0e afbd
00000080: ca16 a83d fa1d 833c 29fa 1d3c 3e3a 96bc
00000090: 6bf2 c2bc 4c4b d23d 1e7a bdbd 575e 1f3c
000000a0: adc4 0bbc 7eb1 3d3d 4c7d 7dbd 9d1e 9e3d
000000b0: a1ce 7fbd 6ef7 3abd 55fb 75bd f6ec f63d
000000c0: 6f89 c9bd 9586 9d3d bba1 e0bd b7ca e13d
000000d0: 6cae 73bc d7e5 abbd a9c2 e2bd f1fa 2fbb
000000e0: 7e1d 8dbd 960f afbd dff4 eebd e81f c4bc
000000f0: e700 7c3d 97da c0bd 48cf 503b 93a7 6b3d
00000100: cd74 21bd 09a6 b7bd 5e4e c73d e3c0 bdbc
00000110: 602a 0dbd 9d63 083d d6d7 b23d 0d74 df3c
00000120: e472 033d 1c2d aa3d 32fe f63d 7754 903d
00000130: a4f2 66bd 550c 913d 6ac4 8bbd f3e3 b0bd
00000140: 5f15 94bd d015 353d af25 923b 6827 fdbd
00000150: 7fe9 b33d 18e5 5fbc d1e2 a2bd c255 52bc
00000160: 650c 02be 62c3 b13d 85fb 0a3e c4db 52bd
00000170: 028d 9abd 6ef2 fbbd e9da 06be 1d26 b1bd
00000180: c9b7 1bbc eb87 9fbd 89c3 083e 9805 b73d
00000190: a331 43bd 68f8 8a3d cfde 8a3c 90a6 2e3c
000001a0: db29 4cbd 5984 ea3d 78ad d93d 2caa 213d
000001b0: bb1d e8bc d225 96bd bc58 22bc cf79 003e
000001c0: 5b9e b13d 8f1a 6c3c 63e6 80bd 5d24 debc
000001d0: 160c 98bd 02b0 013d d815 55bc b9f7 613d
000001e0: 67db d5bd 1b01 8b3d 1655 0dba 5877 b53d
000001f0: 06d2 0fbe 2d90 c9bb 3dc1 863d e8fd dfbd
00000200: 3610 00bd 3369 bdbb cd9a c7bd 80d6 b33d
00000210: b4d9 abbc 3a38 c33c c004 fabc 4eea b8bd
00000220: 690c d2ba 8bfb 83bd 48fe c73d 45e8 923c
00000230: 406f 00be 8a33 aebc cdcc ca3d 314b 2fbc
00000240: c160 2fbc 96b0 e4bc b655 533d 6588 45ba
00000250: da0f 2c3d 0aa2 97bd 2c5e d4bc 96bb c8bd
00000260: 7177 8bbd 0d66 eb3c 1e77 983d f800 1dbd
00000270: 9ccf 2b3d 5214 f7bc 91e6 a4bd 3048 a53d
00000280: 547d 9dbd b0b0 40bc 900e 413d b72d 2c3d
00000290: 85d0 263d 3bef 52bc 7ed0 253c 5403 dbbd
000002a0: 0ba9 e0bd 784c b7bd c19a a3bd ac9a e73c
000002b0: 590a edbd ade5 113d 96b8 9ebd 3954 26bd
000002c0: 27b3 c53d 29e3 dfbd 93e4 dc3d a76c 8a3d
000002d0: 61cd 1bbd ed36 39bd 34c5 acbd 1842 96bd
000002e0: 09d6 aebd 6bd6 a5bd 8a54 6dbc b020 adbd
000002f0: b810 ab3d ca58 30bd 9d0d f9bb cd67 d9bc
00000300: 8b7d 79bc cc9d e33c 9fdb b53d f830 903d
00000310: 11c6 a33c c876 25bd f81d f3bc 9071 343c
00000320: d217 313d d888 adbd 31e2 87bc 710a 453c
00000330: c49c dfbd ddf3 a5bc 2dcc a63c 3c0d 663d
00000340: 08a4 023e 61b4 d73c 7dd6 c63d af37 8d3d
00000350: e55e 91bd e724 503d 8904 ce3d 3a5a f9bc
00000360: e354 a2bd 859e cd3d 2f80 263d 59da 793c
00000370: 1077 c6ba a985 953d c520 393d e6d3 8a3d
00000380: 5eff 063d 483c e13d 93fc c93d 7cc0 bdbb
00000390: b05d e83d ac06 083e 8302 b43d 99c2 2abb
000003a0: fd7c 5e3d 56a6 99bd 12f3 cdbd 6c6a 063e
000003b0: 5c97 003e bac8 ffbc ced6 9dbc 6321 d7bd
000003c0: 8e60 ec3d 3773 c43d 9d0f 433c 72e4 8dbd
000003d0: d8b9 69bc 77c6 3e3d 423a 963b 57f3 88bd
000003e0: a4e5 b53d 899a b13d 125e a73d 2208 313c
000003f0: 1b47 42bb 92d1 c43d 9946 0f3c 3bbd 08be

lstm.bias_ih_l1 f4 [256]
-0.017117877 0.06644982 -0.08188417 0.049795065 -0.082599446 0.048964202 -0.008388087 0.040691372
-0.004528318 -0.059060283 -0.009319083 -0.05574133 -0.015166068 0.14524882 -0.011277556 -0.017710833
-0.053741194 0.035999525 0.06466881 0.045646902 -0.058083277 -0.106010556 0.07397547 0.017136173
-0.06989139 0.09966697 0.07148749 -0.06711998 0.11502015 0.042948823 0.081707984 -0.044613272
0.014013748 0.0104279425 0.080327384 0.023456892 -0.013434393 -0.079366416 -0.10576879 0.05375459
0.1255804 -0.014483651 -0.043610252 -0.08062136 0.08562585 -0.006020297 0.039035134 -0.033705477
0.11922151 0.011536583 0.044921406 0.11764952 -0.11401482 -0.11892162 -0.09032087 0.11120023
-0.038748596 0.12041876 0.018112635 0.12985013 0.07560049 0.09444594 0.061612625 -0.01689901
-0.08610491 0.0668999 -0.03202693 0.05677601 0.014722127 0.1320316 0.061886594 -0.10733231
-0.018889187 0.07153025 0.1286862 0.07349415 -0.08978476 0.122643135 0.08035308 0.122969255
0.08269193 -0.026472332 -0.030064074 -0.021779476 -0.033881973 -0.039946377 -0.0099579245 -0.0047522155
0.07536665 0.12431189 0.07978218 0.085828826 -0.09269871 0.07383608 -0.062442932 -0.1167854
-0.066823296 -0.112251535 -0.012795083 0.10382232 0.11250374 0.01403468 -0.09574743 -0.0018031477
0.0035796189 0.017870277 -0.014140576 -0.09230368 0.047613192 -0.07741066 0.040570036 0.01753234
-0.12567906 0.07601871 -0.099468164 0.041809082 0.11745207 -0.012042348 -0.049766637 0.010083359
-0.004505762 0.041140717 0.02765802 -0.06799305 -0.024142459 -0.09944069 0.11376764 0.011752901
0.011123146 -0.060403254 -0.061979234 0.04386685 -0.06324807 0.012042494 0.03839621 -0.09965425
0.010732308 0.008753834 -0.022333644 -0.04665944 -0.09100924 -0.11794868 -0.018934092 -0.035082776
-0.010707758 0.01462226 -0.103062406 -0.110998854 -0.025768332 -0.03655908 0.06853543 -0.11076681
-0.018740088 -0.06214575 0.057200562 -0.09944267 0.10683041 0.048763014 -0.12187298 -0.06980951
-0.050844625 0.04729744 0.06960156 -0.02063663 0.09714212 0.021428145 0.018584544 0.013155119
-0.08725709 0.097952664 0.0776899 -0.00921166 0.10917304 0.10275407 0.016211635 0.08359829
0.1042362 -0.08049669 0.12372178 -0.048737146 -0.09249927 -0.050032947 0.10979567 -0.12129084
0.11396541 0.09467556 0.034552235 -0.09452592 -0.04020734 0.08158853 -0.12944344 0.08301056
0.016511481 0.04608781 0.01570746 -0.04640717 0.057047963 0.12119334 0.023878803 -0.05873691
0.08876133 0.055344008 0.11494296 0.020750359 0.12424324 0.0038487827 -0.096348874 -0.06922395
0.020786766 -0.07200916 -0.04003585 0.065649 -0.034417003 0.11044133 0.019396514 -0.05503312
0.06849436 -0.08853269 -0.01273041 0.0027511916 -0.0703529 0.058236517 -0.038948406 -0.013667878
0.07419859 0.106957465 -0.09001831 -0.08589202 0.07920154 0.0057528894 -0.087206416 0.023086585
0.11435712 0.08974036 0.007653007 0.079113744 -0.08065025 -0.091504514 -0.06550775 0.1165261
-0.09359623 0.045689225 0.024245182 0.025743486 0.10064566 0.060197957 -0.002640429 0.08669561
0.03634917 0.12993202 -0.02500634 -0.05133908 -0.107020326 -0.10436045 0.077101395 -0.10313366
00000000: ca3a 8cbc d816 883d e3b2 a7bd e9f5 4b3d
00000010: e629 a9bd b08e 483d 306e 09bc ffab 263d
00000020: 4962 94bb 32e9 71bd 11af 18bc 0551 64bd
00000030: 1a7b 78bc 1bbc 143e 80c5 38bc 4f16 91bc
00000040: ba1f 5cbd 3d74 133d 1571 843d 3ff8 3a3d
00000050: bbe8 6dbd 101c d9bd 7480 973d 2961 8c3c
00000060: 3823 8fbd 321e cc3d 0868 923d 3376 89bd
00000070: af8f eb3d 1beb 2f3d 8456 a73d 68bc 36bd
00000080: eb99 653c f6d9 2a3c af82 a43d ab28 c03c
00000090: ee1b 5cbc dc8a a2bd 4f9d d8bd c62d 5c3d
000000a0: 2698 003e d64c 6dbc aaa0 32bd d01c a5bd
000000b0: 9b5c af3d e945 c5bb 4ee3 1f3d c10e 0abd
000000c0: 682a f43d f003 3d3c 82ff 373d 3bf2 f03d
000000d0: 9a80 e9bd 2e8d f3bd 26fa b8bd f2bc e33d
000000e0: d9b6 1ebd 1c9e f63d f360 943c 6ff7 043e
000000f0: 6ed4 9a3d df6c c13d 855d 7c3d cb6f 8abc
00000100: c557 b0bd d102 893d ac2e 03bd f68d 683d
00000110: 1335 713c 4b33 073e cc7c 7d3d 0bd1 dbbd
00000120: 7fbd 9abc 747e 923d 51c6 033e 1a84 963d
00000130: 12e1 b7bd 532c fb3d 2890 a43d 4ed7 fb3d
00000140: 635a a93d 81dc d8bc ef48 f6bc df6a b2bc
00000150: d3c7 0abd d09e 23bd 9026 23bc 79b8 9bbb
00000160: d559 9a3d 3b97 fe3d d764 a33d 06c7 af3d
00000170: d2d8 bdbd 5f37 973d 29c4 7fbd 2f2d efbd
00000180: a7da 88bd 22e4 e5bd 78a2 51bc cca0 d43d
00000190: 5c68 e63d b7f1 653c 3b17 c4bd 9957 ecba
000001a0: 0a98 6a3b b064 923c e0ad 67bc b609 bdbd
000001b0: 0d06 433d 7b89 9ebd c42c 263d fb9f 8f3c
000001c0: 03b2 00be b3af 9b3d f7b5 cbbd 0040 2b3d
000001d0: b68a f03d 454d 45bc 1ad8 4bbd ac34 253c
000001e0: 12a5 93bb 2b83 283d 1293 e23c f13f 8bbd
000001f0: 68c6 c5bc 8fa7 cbbd 02ff e83d 3d8f 403c
00000200: db3d 363c 6769 77bd f0dd 7dbd baad 333d
00000210: 3488 81bd e14d 453c 5845 1d3d 8717 ccbd
00000220: 90d6 2f3c 3e6c 0f3c 0cf5 b6bc f81d 3fbd
00000230: 0d63 babd 148f f1bd ab1b 9bbc f5b2 0fbd
00000240: 986f 2fbc 3492 6f3c 6212 d3bd 5e53 e3bd
00000250: 1c18 d3bc f9be 15bd 4e5c 8c3d b6d9 e2bd
00000260: d084 99bc 8b8c 7ebd 234b 6a3d 99a8 cbbd
00000270: e7c9 da3d babb 473d 8a98 f9bd 4af8 8ebd
00000280: 7442 50bd f6ba 413d 438b 8e3d 260e a9bc
00000290: 73f2 c63d 148a af3c 9d3e 983c 9188 573c
000002a0: d8b3 b2bd 689b c83d e21b 9f3d 81ec 16bc
000002b0: 1d96 df3d ba70 d23d 43ce 843c 9535 ab3d
000002c0: ca79 d53d 73db a4bd d861 fd3d 9aa0 47bd
000002d0: 4270 bdbd 59ef 4cbd 8ddc e03d 5567 f8bd
000002e0: b266 e93d 43e5 c13d a586 0d3d ce96 c1bd
000002f0: 74b0 24bd e317 a73d d28c 04be 7101 aa3d
00000300: 1643 873c 92c6 3c3d eeac 803c 7215 3ebd
00000310: 20ab 693d 3734 f83d 7b9d c33c 1d96 70bd
00000320: 80c8 b53d 66b0 623d 3767 eb3d a8fc a93c
00000330: 3d73 fe3d dc3b 7c3b 8f52 c5bd 49c5 8dbd
00000340: 0249 aa3c 8a79 93bd a2fc 23bd fc72 863d
00000350: d8f8 0cbd 102f e23d 70e5 9e3c 696a 61bd
00000360: c546 8c3d a150 b5bd 3693 50bc 564d 343b
00000370: 2e15 90bd 6a89 6e3d 5d88 1fbd 3cef 5fbc
00000380: 6ef5 973d 840c db3d 855b b8bd 28e8 afbd
00000390: 6b34 a23d bc82 bc3b 4799 b2bd 1420 bd3c
000003a0: 1134 ea3d cbc9 b73d 13c6 fa3b 6306 a23d
000003b0: f52b a5bd b866 bbbd ed28 86bd 3ca5 ee3d
000003c0: 61af bfbd a024 3b3d d59d c63c 01e4 d23c
000003d0: 501f ce3d 2292 763d 0c0b 2dbb 788d b13d
000003e0: dee2 143d e60c 053e 19da ccbc ed48 52bd
000003f0: 792d dbbd eeba d5bd 56e7 9d3d be37 d3bd
